{
  "transform_params" : {
    "image" : {
      "bias_a" : 0,
      "bias_g" : 0,
      "bias_r" : 0,
      "bias_b" : 0,
      "center_mean" : 0,
      "is_network_bgr" : 0,
      "scale" : 0.0039215688593685627
    }
  },
  "properties" : {

  },
  "analyses" : {

  },
  "format_version" : 200,
  "storage" : "model.espresso.weights",
  "layers" : [
    {
      "pad_r" : 1,
      "fused_relu" : 1,
      "fused_tanh" : 0,
      "debug_info" : "mobilenetv2_1.00_224_Conv1",
      "pad_fill_mode" : 0,
      "pad_b" : 1,
      "pad_l" : 0,
      "top" : "mobilenetv2_1.00_224_Conv1_relu_output_relu",
      "blob_weights" : 3,
      "K" : 3,
      "blob_biases" : 1,
      "stride_x" : 2,
      "name" : "mobilenetv2_1.00_224_Conv1",
      "has_batch_norm" : 0,
      "type" : "convolution",
      "n_groups" : 1,
      "pad_t" : 0,
      "stride_y" : 2,
      "has_biases" : 1,
      "C" : 32,
      "bottom" : "image",
      "weights" : {

      },
      "Nx" : 3,
      "pad_mode" : 0,
      "pad_value" : 0,
      "Ny" : 3,
      "n_parallel" : 1
    },
    {
      "alpha" : -1,
      "bottom" : "mobilenetv2_1.00_224_Conv1_relu_output_relu",
      "weights" : {

      },
      "mode" : 6,
      "debug_info" : "mobilenetv2_1.00_224_Conv1_relu__neg__",
      "top" : "mobilenetv2_1.00_224_Conv1_relu_output_relu_neg",
      "type" : "activation",
      "name" : "mobilenetv2_1.00_224_Conv1_relu__neg__",
      "beta" : 0
    },
    {
      "bottom" : "mobilenetv2_1.00_224_Conv1_relu_output_relu_neg",
      "alpha" : -6,
      "operation" : 25,
      "weights" : {

      },
      "fused_relu" : 0,
      "debug_info" : "mobilenetv2_1.00_224_Conv1_relu__clip__",
      "top" : "mobilenetv2_1.00_224_Conv1_relu_output_relu_clip",
      "type" : "elementwise",
      "name" : "mobilenetv2_1.00_224_Conv1_relu__clip__",
      "beta" : 0
    },
    {
      "alpha" : -1,
      "bottom" : "mobilenetv2_1.00_224_Conv1_relu_output_relu_clip",
      "weights" : {

      },
      "mode" : 6,
      "debug_info" : "mobilenetv2_1.00_224_Conv1_relu_neg2",
      "top" : "mobilenetv2_1.00_224_Conv1_relu_output",
      "type" : "activation",
      "name" : "mobilenetv2_1.00_224_Conv1_relu_neg2",
      "beta" : 0
    },
    {
      "pad_r" : 0,
      "fused_relu" : 1,
      "fused_tanh" : 0,
      "debug_info" : "mobilenetv2_1.00_224_expanded_conv_depthwise",
      "pad_fill_mode" : 0,
      "pad_b" : 0,
      "pad_l" : 0,
      "top" : "mobilenetv2_1.00_224_expanded_conv_depthwise_relu_output_relu",
      "blob_weights" : 7,
      "K" : 32,
      "blob_biases" : 5,
      "name" : "mobilenetv2_1.00_224_expanded_conv_depthwise",
      "has_batch_norm" : 0,
      "type" : "convolution",
      "n_groups" : 32,
      "pad_t" : 0,
      "has_biases" : 1,
      "C" : 32,
      "bottom" : "mobilenetv2_1.00_224_Conv1_relu_output",
      "weights" : {

      },
      "Nx" : 3,
      "pad_mode" : 1,
      "pad_value" : 0,
      "Ny" : 3,
      "n_parallel" : 1
    },
    {
      "alpha" : -1,
      "bottom" : "mobilenetv2_1.00_224_expanded_conv_depthwise_relu_output_relu",
      "weights" : {

      },
      "mode" : 6,
      "debug_info" : "mobilenetv2_1.00_224_expanded_conv_depthwise_relu__neg__",
      "top" : "mobilenetv2_1.00_224_expanded_conv_depthwise_relu_output_relu_neg",
      "type" : "activation",
      "name" : "mobilenetv2_1.00_224_expanded_conv_depthwise_relu__neg__",
      "beta" : 0
    },
    {
      "bottom" : "mobilenetv2_1.00_224_expanded_conv_depthwise_relu_output_relu_neg",
      "alpha" : -6,
      "operation" : 25,
      "weights" : {

      },
      "fused_relu" : 0,
      "debug_info" : "mobilenetv2_1.00_224_expanded_conv_depthwise_relu__clip__",
      "top" : "mobilenetv2_1.00_224_expanded_conv_depthwise_relu_output_relu_clip",
      "type" : "elementwise",
      "name" : "mobilenetv2_1.00_224_expanded_conv_depthwise_relu__clip__",
      "beta" : 0
    },
    {
      "alpha" : -1,
      "bottom" : "mobilenetv2_1.00_224_expanded_conv_depthwise_relu_output_relu_clip",
      "weights" : {

      },
      "mode" : 6,
      "debug_info" : "mobilenetv2_1.00_224_expanded_conv_depthwise_relu_neg2",
      "top" : "mobilenetv2_1.00_224_expanded_conv_depthwise_relu_output",
      "type" : "activation",
      "name" : "mobilenetv2_1.00_224_expanded_conv_depthwise_relu_neg2",
      "beta" : 0
    },
    {
      "pad_r" : 0,
      "fused_relu" : 0,
      "fused_tanh" : 0,
      "debug_info" : "mobilenetv2_1.00_224_expanded_conv_project",
      "pad_fill_mode" : 0,
      "pad_b" : 0,
      "pad_l" : 0,
      "top" : "mobilenetv2_1.00_224_expanded_conv_project_BN_output",
      "blob_weights" : 11,
      "K" : 32,
      "blob_biases" : 9,
      "name" : "mobilenetv2_1.00_224_expanded_conv_project",
      "has_batch_norm" : 0,
      "type" : "convolution",
      "n_groups" : 1,
      "pad_t" : 0,
      "has_biases" : 1,
      "C" : 16,
      "bottom" : "mobilenetv2_1.00_224_expanded_conv_depthwise_relu_output",
      "weights" : {

      },
      "Nx" : 1,
      "pad_mode" : 1,
      "pad_value" : 0,
      "Ny" : 1,
      "n_parallel" : 1
    },
    {
      "pad_r" : 0,
      "fused_relu" : 1,
      "fused_tanh" : 0,
      "debug_info" : "mobilenetv2_1.00_224_block_1_expand",
      "pad_fill_mode" : 0,
      "pad_b" : 0,
      "pad_l" : 0,
      "top" : "mobilenetv2_1.00_224_block_1_expand_relu_output_relu",
      "blob_weights" : 15,
      "K" : 16,
      "blob_biases" : 13,
      "name" : "mobilenetv2_1.00_224_block_1_expand",
      "has_batch_norm" : 0,
      "type" : "convolution",
      "n_groups" : 1,
      "pad_t" : 0,
      "has_biases" : 1,
      "C" : 96,
      "bottom" : "mobilenetv2_1.00_224_expanded_conv_project_BN_output",
      "weights" : {

      },
      "Nx" : 1,
      "pad_mode" : 1,
      "pad_value" : 0,
      "Ny" : 1,
      "n_parallel" : 1
    },
    {
      "alpha" : -1,
      "bottom" : "mobilenetv2_1.00_224_block_1_expand_relu_output_relu",
      "weights" : {

      },
      "mode" : 6,
      "debug_info" : "mobilenetv2_1.00_224_block_1_expand_relu__neg__",
      "top" : "mobilenetv2_1.00_224_block_1_expand_relu_output_relu_neg",
      "type" : "activation",
      "name" : "mobilenetv2_1.00_224_block_1_expand_relu__neg__",
      "beta" : 0
    },
    {
      "bottom" : "mobilenetv2_1.00_224_block_1_expand_relu_output_relu_neg",
      "alpha" : -6,
      "operation" : 25,
      "weights" : {

      },
      "fused_relu" : 0,
      "debug_info" : "mobilenetv2_1.00_224_block_1_expand_relu__clip__",
      "top" : "mobilenetv2_1.00_224_block_1_expand_relu_output_relu_clip",
      "type" : "elementwise",
      "name" : "mobilenetv2_1.00_224_block_1_expand_relu__clip__",
      "beta" : 0
    },
    {
      "alpha" : -1,
      "bottom" : "mobilenetv2_1.00_224_block_1_expand_relu_output_relu_clip",
      "weights" : {

      },
      "mode" : 6,
      "debug_info" : "mobilenetv2_1.00_224_block_1_expand_relu_neg2",
      "top" : "mobilenetv2_1.00_224_block_1_expand_relu_output",
      "type" : "activation",
      "name" : "mobilenetv2_1.00_224_block_1_expand_relu_neg2",
      "beta" : 0
    },
    {
      "pad_r" : 1,
      "fused_relu" : 1,
      "fused_tanh" : 0,
      "debug_info" : "mobilenetv2_1.00_224_block_1_depthwise",
      "pad_fill_mode" : 0,
      "pad_b" : 1,
      "pad_l" : 0,
      "top" : "mobilenetv2_1.00_224_block_1_depthwise_relu_output_relu",
      "blob_weights" : 19,
      "K" : 96,
      "blob_biases" : 17,
      "stride_x" : 2,
      "name" : "mobilenetv2_1.00_224_block_1_depthwise",
      "has_batch_norm" : 0,
      "type" : "convolution",
      "n_groups" : 96,
      "pad_t" : 0,
      "stride_y" : 2,
      "has_biases" : 1,
      "C" : 96,
      "bottom" : "mobilenetv2_1.00_224_block_1_expand_relu_output",
      "weights" : {

      },
      "Nx" : 3,
      "pad_mode" : 0,
      "pad_value" : 0,
      "Ny" : 3,
      "n_parallel" : 1
    },
    {
      "alpha" : -1,
      "bottom" : "mobilenetv2_1.00_224_block_1_depthwise_relu_output_relu",
      "weights" : {

      },
      "mode" : 6,
      "debug_info" : "mobilenetv2_1.00_224_block_1_depthwise_relu__neg__",
      "top" : "mobilenetv2_1.00_224_block_1_depthwise_relu_output_relu_neg",
      "type" : "activation",
      "name" : "mobilenetv2_1.00_224_block_1_depthwise_relu__neg__",
      "beta" : 0
    },
    {
      "bottom" : "mobilenetv2_1.00_224_block_1_depthwise_relu_output_relu_neg",
      "alpha" : -6,
      "operation" : 25,
      "weights" : {

      },
      "fused_relu" : 0,
      "debug_info" : "mobilenetv2_1.00_224_block_1_depthwise_relu__clip__",
      "top" : "mobilenetv2_1.00_224_block_1_depthwise_relu_output_relu_clip",
      "type" : "elementwise",
      "name" : "mobilenetv2_1.00_224_block_1_depthwise_relu__clip__",
      "beta" : 0
    },
    {
      "alpha" : -1,
      "bottom" : "mobilenetv2_1.00_224_block_1_depthwise_relu_output_relu_clip",
      "weights" : {

      },
      "mode" : 6,
      "debug_info" : "mobilenetv2_1.00_224_block_1_depthwise_relu_neg2",
      "top" : "mobilenetv2_1.00_224_block_1_depthwise_relu_output",
      "type" : "activation",
      "name" : "mobilenetv2_1.00_224_block_1_depthwise_relu_neg2",
      "beta" : 0
    },
    {
      "pad_r" : 0,
      "fused_relu" : 0,
      "fused_tanh" : 0,
      "debug_info" : "mobilenetv2_1.00_224_block_1_project",
      "pad_fill_mode" : 0,
      "pad_b" : 0,
      "pad_l" : 0,
      "top" : "mobilenetv2_1.00_224_block_1_project_BN_output",
      "blob_weights" : 23,
      "K" : 96,
      "blob_biases" : 21,
      "name" : "mobilenetv2_1.00_224_block_1_project",
      "has_batch_norm" : 0,
      "type" : "convolution",
      "n_groups" : 1,
      "pad_t" : 0,
      "has_biases" : 1,
      "C" : 24,
      "bottom" : "mobilenetv2_1.00_224_block_1_depthwise_relu_output",
      "weights" : {

      },
      "Nx" : 1,
      "pad_mode" : 1,
      "pad_value" : 0,
      "Ny" : 1,
      "n_parallel" : 1
    },
    {
      "pad_r" : 0,
      "fused_relu" : 1,
      "fused_tanh" : 0,
      "debug_info" : "mobilenetv2_1.00_224_block_2_expand",
      "pad_fill_mode" : 0,
      "pad_b" : 0,
      "pad_l" : 0,
      "top" : "mobilenetv2_1.00_224_block_2_expand_relu_output_relu",
      "blob_weights" : 27,
      "K" : 24,
      "blob_biases" : 25,
      "name" : "mobilenetv2_1.00_224_block_2_expand",
      "has_batch_norm" : 0,
      "type" : "convolution",
      "n_groups" : 1,
      "pad_t" : 0,
      "has_biases" : 1,
      "C" : 144,
      "bottom" : "mobilenetv2_1.00_224_block_1_project_BN_output",
      "weights" : {

      },
      "Nx" : 1,
      "pad_mode" : 1,
      "pad_value" : 0,
      "Ny" : 1,
      "n_parallel" : 1
    },
    {
      "alpha" : -1,
      "bottom" : "mobilenetv2_1.00_224_block_2_expand_relu_output_relu",
      "weights" : {

      },
      "mode" : 6,
      "debug_info" : "mobilenetv2_1.00_224_block_2_expand_relu__neg__",
      "top" : "mobilenetv2_1.00_224_block_2_expand_relu_output_relu_neg",
      "type" : "activation",
      "name" : "mobilenetv2_1.00_224_block_2_expand_relu__neg__",
      "beta" : 0
    },
    {
      "bottom" : "mobilenetv2_1.00_224_block_2_expand_relu_output_relu_neg",
      "alpha" : -6,
      "operation" : 25,
      "weights" : {

      },
      "fused_relu" : 0,
      "debug_info" : "mobilenetv2_1.00_224_block_2_expand_relu__clip__",
      "top" : "mobilenetv2_1.00_224_block_2_expand_relu_output_relu_clip",
      "type" : "elementwise",
      "name" : "mobilenetv2_1.00_224_block_2_expand_relu__clip__",
      "beta" : 0
    },
    {
      "alpha" : -1,
      "bottom" : "mobilenetv2_1.00_224_block_2_expand_relu_output_relu_clip",
      "weights" : {

      },
      "mode" : 6,
      "debug_info" : "mobilenetv2_1.00_224_block_2_expand_relu_neg2",
      "top" : "mobilenetv2_1.00_224_block_2_expand_relu_output",
      "type" : "activation",
      "name" : "mobilenetv2_1.00_224_block_2_expand_relu_neg2",
      "beta" : 0
    },
    {
      "pad_r" : 0,
      "fused_relu" : 1,
      "fused_tanh" : 0,
      "debug_info" : "mobilenetv2_1.00_224_block_2_depthwise",
      "pad_fill_mode" : 0,
      "pad_b" : 0,
      "pad_l" : 0,
      "top" : "mobilenetv2_1.00_224_block_2_depthwise_relu_output_relu",
      "blob_weights" : 31,
      "K" : 144,
      "blob_biases" : 29,
      "name" : "mobilenetv2_1.00_224_block_2_depthwise",
      "has_batch_norm" : 0,
      "type" : "convolution",
      "n_groups" : 144,
      "pad_t" : 0,
      "has_biases" : 1,
      "C" : 144,
      "bottom" : "mobilenetv2_1.00_224_block_2_expand_relu_output",
      "weights" : {

      },
      "Nx" : 3,
      "pad_mode" : 1,
      "pad_value" : 0,
      "Ny" : 3,
      "n_parallel" : 1
    },
    {
      "alpha" : -1,
      "bottom" : "mobilenetv2_1.00_224_block_2_depthwise_relu_output_relu",
      "weights" : {

      },
      "mode" : 6,
      "debug_info" : "mobilenetv2_1.00_224_block_2_depthwise_relu__neg__",
      "top" : "mobilenetv2_1.00_224_block_2_depthwise_relu_output_relu_neg",
      "type" : "activation",
      "name" : "mobilenetv2_1.00_224_block_2_depthwise_relu__neg__",
      "beta" : 0
    },
    {
      "bottom" : "mobilenetv2_1.00_224_block_2_depthwise_relu_output_relu_neg",
      "alpha" : -6,
      "operation" : 25,
      "weights" : {

      },
      "fused_relu" : 0,
      "debug_info" : "mobilenetv2_1.00_224_block_2_depthwise_relu__clip__",
      "top" : "mobilenetv2_1.00_224_block_2_depthwise_relu_output_relu_clip",
      "type" : "elementwise",
      "name" : "mobilenetv2_1.00_224_block_2_depthwise_relu__clip__",
      "beta" : 0
    },
    {
      "alpha" : -1,
      "bottom" : "mobilenetv2_1.00_224_block_2_depthwise_relu_output_relu_clip",
      "weights" : {

      },
      "mode" : 6,
      "debug_info" : "mobilenetv2_1.00_224_block_2_depthwise_relu_neg2",
      "top" : "mobilenetv2_1.00_224_block_2_depthwise_relu_output",
      "type" : "activation",
      "name" : "mobilenetv2_1.00_224_block_2_depthwise_relu_neg2",
      "beta" : 0
    },
    {
      "pad_r" : 0,
      "fused_relu" : 0,
      "fused_tanh" : 0,
      "debug_info" : "mobilenetv2_1.00_224_block_2_project",
      "pad_fill_mode" : 0,
      "pad_b" : 0,
      "pad_l" : 0,
      "top" : "mobilenetv2_1.00_224_block_2_project_BN_output",
      "blob_weights" : 35,
      "K" : 144,
      "blob_biases" : 33,
      "name" : "mobilenetv2_1.00_224_block_2_project",
      "has_batch_norm" : 0,
      "type" : "convolution",
      "n_groups" : 1,
      "pad_t" : 0,
      "has_biases" : 1,
      "C" : 24,
      "bottom" : "mobilenetv2_1.00_224_block_2_depthwise_relu_output",
      "weights" : {

      },
      "Nx" : 1,
      "pad_mode" : 1,
      "pad_value" : 0,
      "Ny" : 1,
      "n_parallel" : 1
    },
    {
      "bottom" : "mobilenetv2_1.00_224_block_1_project_BN_output,mobilenetv2_1.00_224_block_2_project_BN_output",
      "alpha" : 1,
      "operation" : 0,
      "weights" : {

      },
      "fused_relu" : 0,
      "debug_info" : "mobilenetv2_1.00_224_block_2_add",
      "top" : "mobilenetv2_1.00_224_block_2_add_output",
      "type" : "elementwise",
      "name" : "mobilenetv2_1.00_224_block_2_add",
      "beta" : 0
    },
    {
      "pad_r" : 0,
      "fused_relu" : 1,
      "fused_tanh" : 0,
      "debug_info" : "mobilenetv2_1.00_224_block_3_expand",
      "pad_fill_mode" : 0,
      "pad_b" : 0,
      "pad_l" : 0,
      "top" : "mobilenetv2_1.00_224_block_3_expand_relu_output_relu",
      "blob_weights" : 39,
      "K" : 24,
      "blob_biases" : 37,
      "name" : "mobilenetv2_1.00_224_block_3_expand",
      "has_batch_norm" : 0,
      "type" : "convolution",
      "n_groups" : 1,
      "pad_t" : 0,
      "has_biases" : 1,
      "C" : 144,
      "bottom" : "mobilenetv2_1.00_224_block_2_add_output",
      "weights" : {

      },
      "Nx" : 1,
      "pad_mode" : 1,
      "pad_value" : 0,
      "Ny" : 1,
      "n_parallel" : 1
    },
    {
      "alpha" : -1,
      "bottom" : "mobilenetv2_1.00_224_block_3_expand_relu_output_relu",
      "weights" : {

      },
      "mode" : 6,
      "debug_info" : "mobilenetv2_1.00_224_block_3_expand_relu__neg__",
      "top" : "mobilenetv2_1.00_224_block_3_expand_relu_output_relu_neg",
      "type" : "activation",
      "name" : "mobilenetv2_1.00_224_block_3_expand_relu__neg__",
      "beta" : 0
    },
    {
      "bottom" : "mobilenetv2_1.00_224_block_3_expand_relu_output_relu_neg",
      "alpha" : -6,
      "operation" : 25,
      "weights" : {

      },
      "fused_relu" : 0,
      "debug_info" : "mobilenetv2_1.00_224_block_3_expand_relu__clip__",
      "top" : "mobilenetv2_1.00_224_block_3_expand_relu_output_relu_clip",
      "type" : "elementwise",
      "name" : "mobilenetv2_1.00_224_block_3_expand_relu__clip__",
      "beta" : 0
    },
    {
      "alpha" : -1,
      "bottom" : "mobilenetv2_1.00_224_block_3_expand_relu_output_relu_clip",
      "weights" : {

      },
      "mode" : 6,
      "debug_info" : "mobilenetv2_1.00_224_block_3_expand_relu_neg2",
      "top" : "mobilenetv2_1.00_224_block_3_expand_relu_output",
      "type" : "activation",
      "name" : "mobilenetv2_1.00_224_block_3_expand_relu_neg2",
      "beta" : 0
    },
    {
      "pad_r" : 1,
      "fused_relu" : 1,
      "fused_tanh" : 0,
      "debug_info" : "mobilenetv2_1.00_224_block_3_depthwise",
      "pad_fill_mode" : 0,
      "pad_b" : 1,
      "pad_l" : 0,
      "top" : "mobilenetv2_1.00_224_block_3_depthwise_relu_output_relu",
      "blob_weights" : 43,
      "K" : 144,
      "blob_biases" : 41,
      "stride_x" : 2,
      "name" : "mobilenetv2_1.00_224_block_3_depthwise",
      "has_batch_norm" : 0,
      "type" : "convolution",
      "n_groups" : 144,
      "pad_t" : 0,
      "stride_y" : 2,
      "has_biases" : 1,
      "C" : 144,
      "bottom" : "mobilenetv2_1.00_224_block_3_expand_relu_output",
      "weights" : {

      },
      "Nx" : 3,
      "pad_mode" : 0,
      "pad_value" : 0,
      "Ny" : 3,
      "n_parallel" : 1
    },
    {
      "alpha" : -1,
      "bottom" : "mobilenetv2_1.00_224_block_3_depthwise_relu_output_relu",
      "weights" : {

      },
      "mode" : 6,
      "debug_info" : "mobilenetv2_1.00_224_block_3_depthwise_relu__neg__",
      "top" : "mobilenetv2_1.00_224_block_3_depthwise_relu_output_relu_neg",
      "type" : "activation",
      "name" : "mobilenetv2_1.00_224_block_3_depthwise_relu__neg__",
      "beta" : 0
    },
    {
      "bottom" : "mobilenetv2_1.00_224_block_3_depthwise_relu_output_relu_neg",
      "alpha" : -6,
      "operation" : 25,
      "weights" : {

      },
      "fused_relu" : 0,
      "debug_info" : "mobilenetv2_1.00_224_block_3_depthwise_relu__clip__",
      "top" : "mobilenetv2_1.00_224_block_3_depthwise_relu_output_relu_clip",
      "type" : "elementwise",
      "name" : "mobilenetv2_1.00_224_block_3_depthwise_relu__clip__",
      "beta" : 0
    },
    {
      "alpha" : -1,
      "bottom" : "mobilenetv2_1.00_224_block_3_depthwise_relu_output_relu_clip",
      "weights" : {

      },
      "mode" : 6,
      "debug_info" : "mobilenetv2_1.00_224_block_3_depthwise_relu_neg2",
      "top" : "mobilenetv2_1.00_224_block_3_depthwise_relu_output",
      "type" : "activation",
      "name" : "mobilenetv2_1.00_224_block_3_depthwise_relu_neg2",
      "beta" : 0
    },
    {
      "pad_r" : 0,
      "fused_relu" : 0,
      "fused_tanh" : 0,
      "debug_info" : "mobilenetv2_1.00_224_block_3_project",
      "pad_fill_mode" : 0,
      "pad_b" : 0,
      "pad_l" : 0,
      "top" : "mobilenetv2_1.00_224_block_3_project_BN_output",
      "blob_weights" : 47,
      "K" : 144,
      "blob_biases" : 45,
      "name" : "mobilenetv2_1.00_224_block_3_project",
      "has_batch_norm" : 0,
      "type" : "convolution",
      "n_groups" : 1,
      "pad_t" : 0,
      "has_biases" : 1,
      "C" : 32,
      "bottom" : "mobilenetv2_1.00_224_block_3_depthwise_relu_output",
      "weights" : {

      },
      "Nx" : 1,
      "pad_mode" : 1,
      "pad_value" : 0,
      "Ny" : 1,
      "n_parallel" : 1
    },
    {
      "pad_r" : 0,
      "fused_relu" : 1,
      "fused_tanh" : 0,
      "debug_info" : "mobilenetv2_1.00_224_block_4_expand",
      "pad_fill_mode" : 0,
      "pad_b" : 0,
      "pad_l" : 0,
      "top" : "mobilenetv2_1.00_224_block_4_expand_relu_output_relu",
      "blob_weights" : 51,
      "K" : 32,
      "blob_biases" : 49,
      "name" : "mobilenetv2_1.00_224_block_4_expand",
      "has_batch_norm" : 0,
      "type" : "convolution",
      "n_groups" : 1,
      "pad_t" : 0,
      "has_biases" : 1,
      "C" : 192,
      "bottom" : "mobilenetv2_1.00_224_block_3_project_BN_output",
      "weights" : {

      },
      "Nx" : 1,
      "pad_mode" : 1,
      "pad_value" : 0,
      "Ny" : 1,
      "n_parallel" : 1
    },
    {
      "alpha" : -1,
      "bottom" : "mobilenetv2_1.00_224_block_4_expand_relu_output_relu",
      "weights" : {

      },
      "mode" : 6,
      "debug_info" : "mobilenetv2_1.00_224_block_4_expand_relu__neg__",
      "top" : "mobilenetv2_1.00_224_block_4_expand_relu_output_relu_neg",
      "type" : "activation",
      "name" : "mobilenetv2_1.00_224_block_4_expand_relu__neg__",
      "beta" : 0
    },
    {
      "bottom" : "mobilenetv2_1.00_224_block_4_expand_relu_output_relu_neg",
      "alpha" : -6,
      "operation" : 25,
      "weights" : {

      },
      "fused_relu" : 0,
      "debug_info" : "mobilenetv2_1.00_224_block_4_expand_relu__clip__",
      "top" : "mobilenetv2_1.00_224_block_4_expand_relu_output_relu_clip",
      "type" : "elementwise",
      "name" : "mobilenetv2_1.00_224_block_4_expand_relu__clip__",
      "beta" : 0
    },
    {
      "alpha" : -1,
      "bottom" : "mobilenetv2_1.00_224_block_4_expand_relu_output_relu_clip",
      "weights" : {

      },
      "mode" : 6,
      "debug_info" : "mobilenetv2_1.00_224_block_4_expand_relu_neg2",
      "top" : "mobilenetv2_1.00_224_block_4_expand_relu_output",
      "type" : "activation",
      "name" : "mobilenetv2_1.00_224_block_4_expand_relu_neg2",
      "beta" : 0
    },
    {
      "pad_r" : 0,
      "fused_relu" : 1,
      "fused_tanh" : 0,
      "debug_info" : "mobilenetv2_1.00_224_block_4_depthwise",
      "pad_fill_mode" : 0,
      "pad_b" : 0,
      "pad_l" : 0,
      "top" : "mobilenetv2_1.00_224_block_4_depthwise_relu_output_relu",
      "blob_weights" : 55,
      "K" : 192,
      "blob_biases" : 53,
      "name" : "mobilenetv2_1.00_224_block_4_depthwise",
      "has_batch_norm" : 0,
      "type" : "convolution",
      "n_groups" : 192,
      "pad_t" : 0,
      "has_biases" : 1,
      "C" : 192,
      "bottom" : "mobilenetv2_1.00_224_block_4_expand_relu_output",
      "weights" : {

      },
      "Nx" : 3,
      "pad_mode" : 1,
      "pad_value" : 0,
      "Ny" : 3,
      "n_parallel" : 1
    },
    {
      "alpha" : -1,
      "bottom" : "mobilenetv2_1.00_224_block_4_depthwise_relu_output_relu",
      "weights" : {

      },
      "mode" : 6,
      "debug_info" : "mobilenetv2_1.00_224_block_4_depthwise_relu__neg__",
      "top" : "mobilenetv2_1.00_224_block_4_depthwise_relu_output_relu_neg",
      "type" : "activation",
      "name" : "mobilenetv2_1.00_224_block_4_depthwise_relu__neg__",
      "beta" : 0
    },
    {
      "bottom" : "mobilenetv2_1.00_224_block_4_depthwise_relu_output_relu_neg",
      "alpha" : -6,
      "operation" : 25,
      "weights" : {

      },
      "fused_relu" : 0,
      "debug_info" : "mobilenetv2_1.00_224_block_4_depthwise_relu__clip__",
      "top" : "mobilenetv2_1.00_224_block_4_depthwise_relu_output_relu_clip",
      "type" : "elementwise",
      "name" : "mobilenetv2_1.00_224_block_4_depthwise_relu__clip__",
      "beta" : 0
    },
    {
      "alpha" : -1,
      "bottom" : "mobilenetv2_1.00_224_block_4_depthwise_relu_output_relu_clip",
      "weights" : {

      },
      "mode" : 6,
      "debug_info" : "mobilenetv2_1.00_224_block_4_depthwise_relu_neg2",
      "top" : "mobilenetv2_1.00_224_block_4_depthwise_relu_output",
      "type" : "activation",
      "name" : "mobilenetv2_1.00_224_block_4_depthwise_relu_neg2",
      "beta" : 0
    },
    {
      "pad_r" : 0,
      "fused_relu" : 0,
      "fused_tanh" : 0,
      "debug_info" : "mobilenetv2_1.00_224_block_4_project",
      "pad_fill_mode" : 0,
      "pad_b" : 0,
      "pad_l" : 0,
      "top" : "mobilenetv2_1.00_224_block_4_project_BN_output",
      "blob_weights" : 59,
      "K" : 192,
      "blob_biases" : 57,
      "name" : "mobilenetv2_1.00_224_block_4_project",
      "has_batch_norm" : 0,
      "type" : "convolution",
      "n_groups" : 1,
      "pad_t" : 0,
      "has_biases" : 1,
      "C" : 32,
      "bottom" : "mobilenetv2_1.00_224_block_4_depthwise_relu_output",
      "weights" : {

      },
      "Nx" : 1,
      "pad_mode" : 1,
      "pad_value" : 0,
      "Ny" : 1,
      "n_parallel" : 1
    },
    {
      "bottom" : "mobilenetv2_1.00_224_block_3_project_BN_output,mobilenetv2_1.00_224_block_4_project_BN_output",
      "alpha" : 1,
      "operation" : 0,
      "weights" : {

      },
      "fused_relu" : 0,
      "debug_info" : "mobilenetv2_1.00_224_block_4_add",
      "top" : "mobilenetv2_1.00_224_block_4_add_output",
      "type" : "elementwise",
      "name" : "mobilenetv2_1.00_224_block_4_add",
      "beta" : 0
    },
    {
      "pad_r" : 0,
      "fused_relu" : 1,
      "fused_tanh" : 0,
      "debug_info" : "mobilenetv2_1.00_224_block_5_expand",
      "pad_fill_mode" : 0,
      "pad_b" : 0,
      "pad_l" : 0,
      "top" : "mobilenetv2_1.00_224_block_5_expand_relu_output_relu",
      "blob_weights" : 63,
      "K" : 32,
      "blob_biases" : 61,
      "name" : "mobilenetv2_1.00_224_block_5_expand",
      "has_batch_norm" : 0,
      "type" : "convolution",
      "n_groups" : 1,
      "pad_t" : 0,
      "has_biases" : 1,
      "C" : 192,
      "bottom" : "mobilenetv2_1.00_224_block_4_add_output",
      "weights" : {

      },
      "Nx" : 1,
      "pad_mode" : 1,
      "pad_value" : 0,
      "Ny" : 1,
      "n_parallel" : 1
    },
    {
      "alpha" : -1,
      "bottom" : "mobilenetv2_1.00_224_block_5_expand_relu_output_relu",
      "weights" : {

      },
      "mode" : 6,
      "debug_info" : "mobilenetv2_1.00_224_block_5_expand_relu__neg__",
      "top" : "mobilenetv2_1.00_224_block_5_expand_relu_output_relu_neg",
      "type" : "activation",
      "name" : "mobilenetv2_1.00_224_block_5_expand_relu__neg__",
      "beta" : 0
    },
    {
      "bottom" : "mobilenetv2_1.00_224_block_5_expand_relu_output_relu_neg",
      "alpha" : -6,
      "operation" : 25,
      "weights" : {

      },
      "fused_relu" : 0,
      "debug_info" : "mobilenetv2_1.00_224_block_5_expand_relu__clip__",
      "top" : "mobilenetv2_1.00_224_block_5_expand_relu_output_relu_clip",
      "type" : "elementwise",
      "name" : "mobilenetv2_1.00_224_block_5_expand_relu__clip__",
      "beta" : 0
    },
    {
      "alpha" : -1,
      "bottom" : "mobilenetv2_1.00_224_block_5_expand_relu_output_relu_clip",
      "weights" : {

      },
      "mode" : 6,
      "debug_info" : "mobilenetv2_1.00_224_block_5_expand_relu_neg2",
      "top" : "mobilenetv2_1.00_224_block_5_expand_relu_output",
      "type" : "activation",
      "name" : "mobilenetv2_1.00_224_block_5_expand_relu_neg2",
      "beta" : 0
    },
    {
      "pad_r" : 0,
      "fused_relu" : 1,
      "fused_tanh" : 0,
      "debug_info" : "mobilenetv2_1.00_224_block_5_depthwise",
      "pad_fill_mode" : 0,
      "pad_b" : 0,
      "pad_l" : 0,
      "top" : "mobilenetv2_1.00_224_block_5_depthwise_relu_output_relu",
      "blob_weights" : 67,
      "K" : 192,
      "blob_biases" : 65,
      "name" : "mobilenetv2_1.00_224_block_5_depthwise",
      "has_batch_norm" : 0,
      "type" : "convolution",
      "n_groups" : 192,
      "pad_t" : 0,
      "has_biases" : 1,
      "C" : 192,
      "bottom" : "mobilenetv2_1.00_224_block_5_expand_relu_output",
      "weights" : {

      },
      "Nx" : 3,
      "pad_mode" : 1,
      "pad_value" : 0,
      "Ny" : 3,
      "n_parallel" : 1
    },
    {
      "alpha" : -1,
      "bottom" : "mobilenetv2_1.00_224_block_5_depthwise_relu_output_relu",
      "weights" : {

      },
      "mode" : 6,
      "debug_info" : "mobilenetv2_1.00_224_block_5_depthwise_relu__neg__",
      "top" : "mobilenetv2_1.00_224_block_5_depthwise_relu_output_relu_neg",
      "type" : "activation",
      "name" : "mobilenetv2_1.00_224_block_5_depthwise_relu__neg__",
      "beta" : 0
    },
    {
      "bottom" : "mobilenetv2_1.00_224_block_5_depthwise_relu_output_relu_neg",
      "alpha" : -6,
      "operation" : 25,
      "weights" : {

      },
      "fused_relu" : 0,
      "debug_info" : "mobilenetv2_1.00_224_block_5_depthwise_relu__clip__",
      "top" : "mobilenetv2_1.00_224_block_5_depthwise_relu_output_relu_clip",
      "type" : "elementwise",
      "name" : "mobilenetv2_1.00_224_block_5_depthwise_relu__clip__",
      "beta" : 0
    },
    {
      "alpha" : -1,
      "bottom" : "mobilenetv2_1.00_224_block_5_depthwise_relu_output_relu_clip",
      "weights" : {

      },
      "mode" : 6,
      "debug_info" : "mobilenetv2_1.00_224_block_5_depthwise_relu_neg2",
      "top" : "mobilenetv2_1.00_224_block_5_depthwise_relu_output",
      "type" : "activation",
      "name" : "mobilenetv2_1.00_224_block_5_depthwise_relu_neg2",
      "beta" : 0
    },
    {
      "pad_r" : 0,
      "fused_relu" : 0,
      "fused_tanh" : 0,
      "debug_info" : "mobilenetv2_1.00_224_block_5_project",
      "pad_fill_mode" : 0,
      "pad_b" : 0,
      "pad_l" : 0,
      "top" : "mobilenetv2_1.00_224_block_5_project_BN_output",
      "blob_weights" : 71,
      "K" : 192,
      "blob_biases" : 69,
      "name" : "mobilenetv2_1.00_224_block_5_project",
      "has_batch_norm" : 0,
      "type" : "convolution",
      "n_groups" : 1,
      "pad_t" : 0,
      "has_biases" : 1,
      "C" : 32,
      "bottom" : "mobilenetv2_1.00_224_block_5_depthwise_relu_output",
      "weights" : {

      },
      "Nx" : 1,
      "pad_mode" : 1,
      "pad_value" : 0,
      "Ny" : 1,
      "n_parallel" : 1
    },
    {
      "bottom" : "mobilenetv2_1.00_224_block_4_add_output,mobilenetv2_1.00_224_block_5_project_BN_output",
      "alpha" : 1,
      "operation" : 0,
      "weights" : {

      },
      "fused_relu" : 0,
      "debug_info" : "mobilenetv2_1.00_224_block_5_add",
      "top" : "mobilenetv2_1.00_224_block_5_add_output",
      "type" : "elementwise",
      "name" : "mobilenetv2_1.00_224_block_5_add",
      "beta" : 0
    },
    {
      "pad_r" : 0,
      "fused_relu" : 1,
      "fused_tanh" : 0,
      "debug_info" : "mobilenetv2_1.00_224_block_6_expand",
      "pad_fill_mode" : 0,
      "pad_b" : 0,
      "pad_l" : 0,
      "top" : "mobilenetv2_1.00_224_block_6_expand_relu_output_relu",
      "blob_weights" : 75,
      "K" : 32,
      "blob_biases" : 73,
      "name" : "mobilenetv2_1.00_224_block_6_expand",
      "has_batch_norm" : 0,
      "type" : "convolution",
      "n_groups" : 1,
      "pad_t" : 0,
      "has_biases" : 1,
      "C" : 192,
      "bottom" : "mobilenetv2_1.00_224_block_5_add_output",
      "weights" : {

      },
      "Nx" : 1,
      "pad_mode" : 1,
      "pad_value" : 0,
      "Ny" : 1,
      "n_parallel" : 1
    },
    {
      "alpha" : -1,
      "bottom" : "mobilenetv2_1.00_224_block_6_expand_relu_output_relu",
      "weights" : {

      },
      "mode" : 6,
      "debug_info" : "mobilenetv2_1.00_224_block_6_expand_relu__neg__",
      "top" : "mobilenetv2_1.00_224_block_6_expand_relu_output_relu_neg",
      "type" : "activation",
      "name" : "mobilenetv2_1.00_224_block_6_expand_relu__neg__",
      "beta" : 0
    },
    {
      "bottom" : "mobilenetv2_1.00_224_block_6_expand_relu_output_relu_neg",
      "alpha" : -6,
      "operation" : 25,
      "weights" : {

      },
      "fused_relu" : 0,
      "debug_info" : "mobilenetv2_1.00_224_block_6_expand_relu__clip__",
      "top" : "mobilenetv2_1.00_224_block_6_expand_relu_output_relu_clip",
      "type" : "elementwise",
      "name" : "mobilenetv2_1.00_224_block_6_expand_relu__clip__",
      "beta" : 0
    },
    {
      "alpha" : -1,
      "bottom" : "mobilenetv2_1.00_224_block_6_expand_relu_output_relu_clip",
      "weights" : {

      },
      "mode" : 6,
      "debug_info" : "mobilenetv2_1.00_224_block_6_expand_relu_neg2",
      "top" : "mobilenetv2_1.00_224_block_6_expand_relu_output",
      "type" : "activation",
      "name" : "mobilenetv2_1.00_224_block_6_expand_relu_neg2",
      "beta" : 0
    },
    {
      "pad_r" : 1,
      "fused_relu" : 1,
      "fused_tanh" : 0,
      "debug_info" : "mobilenetv2_1.00_224_block_6_depthwise",
      "pad_fill_mode" : 0,
      "pad_b" : 1,
      "pad_l" : 0,
      "top" : "mobilenetv2_1.00_224_block_6_depthwise_relu_output_relu",
      "blob_weights" : 79,
      "K" : 192,
      "blob_biases" : 77,
      "stride_x" : 2,
      "name" : "mobilenetv2_1.00_224_block_6_depthwise",
      "has_batch_norm" : 0,
      "type" : "convolution",
      "n_groups" : 192,
      "pad_t" : 0,
      "stride_y" : 2,
      "has_biases" : 1,
      "C" : 192,
      "bottom" : "mobilenetv2_1.00_224_block_6_expand_relu_output",
      "weights" : {

      },
      "Nx" : 3,
      "pad_mode" : 0,
      "pad_value" : 0,
      "Ny" : 3,
      "n_parallel" : 1
    },
    {
      "alpha" : -1,
      "bottom" : "mobilenetv2_1.00_224_block_6_depthwise_relu_output_relu",
      "weights" : {

      },
      "mode" : 6,
      "debug_info" : "mobilenetv2_1.00_224_block_6_depthwise_relu__neg__",
      "top" : "mobilenetv2_1.00_224_block_6_depthwise_relu_output_relu_neg",
      "type" : "activation",
      "name" : "mobilenetv2_1.00_224_block_6_depthwise_relu__neg__",
      "beta" : 0
    },
    {
      "bottom" : "mobilenetv2_1.00_224_block_6_depthwise_relu_output_relu_neg",
      "alpha" : -6,
      "operation" : 25,
      "weights" : {

      },
      "fused_relu" : 0,
      "debug_info" : "mobilenetv2_1.00_224_block_6_depthwise_relu__clip__",
      "top" : "mobilenetv2_1.00_224_block_6_depthwise_relu_output_relu_clip",
      "type" : "elementwise",
      "name" : "mobilenetv2_1.00_224_block_6_depthwise_relu__clip__",
      "beta" : 0
    },
    {
      "alpha" : -1,
      "bottom" : "mobilenetv2_1.00_224_block_6_depthwise_relu_output_relu_clip",
      "weights" : {

      },
      "mode" : 6,
      "debug_info" : "mobilenetv2_1.00_224_block_6_depthwise_relu_neg2",
      "top" : "mobilenetv2_1.00_224_block_6_depthwise_relu_output",
      "type" : "activation",
      "name" : "mobilenetv2_1.00_224_block_6_depthwise_relu_neg2",
      "beta" : 0
    },
    {
      "pad_r" : 0,
      "fused_relu" : 0,
      "fused_tanh" : 0,
      "debug_info" : "mobilenetv2_1.00_224_block_6_project",
      "pad_fill_mode" : 0,
      "pad_b" : 0,
      "pad_l" : 0,
      "top" : "mobilenetv2_1.00_224_block_6_project_BN_output",
      "blob_weights" : 83,
      "K" : 192,
      "blob_biases" : 81,
      "name" : "mobilenetv2_1.00_224_block_6_project",
      "has_batch_norm" : 0,
      "type" : "convolution",
      "n_groups" : 1,
      "pad_t" : 0,
      "has_biases" : 1,
      "C" : 64,
      "bottom" : "mobilenetv2_1.00_224_block_6_depthwise_relu_output",
      "weights" : {

      },
      "Nx" : 1,
      "pad_mode" : 1,
      "pad_value" : 0,
      "Ny" : 1,
      "n_parallel" : 1
    },
    {
      "pad_r" : 0,
      "fused_relu" : 1,
      "fused_tanh" : 0,
      "debug_info" : "mobilenetv2_1.00_224_block_7_expand",
      "pad_fill_mode" : 0,
      "pad_b" : 0,
      "pad_l" : 0,
      "top" : "mobilenetv2_1.00_224_block_7_expand_relu_output_relu",
      "blob_weights" : 87,
      "K" : 64,
      "blob_biases" : 85,
      "name" : "mobilenetv2_1.00_224_block_7_expand",
      "has_batch_norm" : 0,
      "type" : "convolution",
      "n_groups" : 1,
      "pad_t" : 0,
      "has_biases" : 1,
      "C" : 384,
      "bottom" : "mobilenetv2_1.00_224_block_6_project_BN_output",
      "weights" : {

      },
      "Nx" : 1,
      "pad_mode" : 1,
      "pad_value" : 0,
      "Ny" : 1,
      "n_parallel" : 1
    },
    {
      "alpha" : -1,
      "bottom" : "mobilenetv2_1.00_224_block_7_expand_relu_output_relu",
      "weights" : {

      },
      "mode" : 6,
      "debug_info" : "mobilenetv2_1.00_224_block_7_expand_relu__neg__",
      "top" : "mobilenetv2_1.00_224_block_7_expand_relu_output_relu_neg",
      "type" : "activation",
      "name" : "mobilenetv2_1.00_224_block_7_expand_relu__neg__",
      "beta" : 0
    },
    {
      "bottom" : "mobilenetv2_1.00_224_block_7_expand_relu_output_relu_neg",
      "alpha" : -6,
      "operation" : 25,
      "weights" : {

      },
      "fused_relu" : 0,
      "debug_info" : "mobilenetv2_1.00_224_block_7_expand_relu__clip__",
      "top" : "mobilenetv2_1.00_224_block_7_expand_relu_output_relu_clip",
      "type" : "elementwise",
      "name" : "mobilenetv2_1.00_224_block_7_expand_relu__clip__",
      "beta" : 0
    },
    {
      "alpha" : -1,
      "bottom" : "mobilenetv2_1.00_224_block_7_expand_relu_output_relu_clip",
      "weights" : {

      },
      "mode" : 6,
      "debug_info" : "mobilenetv2_1.00_224_block_7_expand_relu_neg2",
      "top" : "mobilenetv2_1.00_224_block_7_expand_relu_output",
      "type" : "activation",
      "name" : "mobilenetv2_1.00_224_block_7_expand_relu_neg2",
      "beta" : 0
    },
    {
      "pad_r" : 0,
      "fused_relu" : 1,
      "fused_tanh" : 0,
      "debug_info" : "mobilenetv2_1.00_224_block_7_depthwise",
      "pad_fill_mode" : 0,
      "pad_b" : 0,
      "pad_l" : 0,
      "top" : "mobilenetv2_1.00_224_block_7_depthwise_relu_output_relu",
      "blob_weights" : 91,
      "K" : 384,
      "blob_biases" : 89,
      "name" : "mobilenetv2_1.00_224_block_7_depthwise",
      "has_batch_norm" : 0,
      "type" : "convolution",
      "n_groups" : 384,
      "pad_t" : 0,
      "has_biases" : 1,
      "C" : 384,
      "bottom" : "mobilenetv2_1.00_224_block_7_expand_relu_output",
      "weights" : {

      },
      "Nx" : 3,
      "pad_mode" : 1,
      "pad_value" : 0,
      "Ny" : 3,
      "n_parallel" : 1
    },
    {
      "alpha" : -1,
      "bottom" : "mobilenetv2_1.00_224_block_7_depthwise_relu_output_relu",
      "weights" : {

      },
      "mode" : 6,
      "debug_info" : "mobilenetv2_1.00_224_block_7_depthwise_relu__neg__",
      "top" : "mobilenetv2_1.00_224_block_7_depthwise_relu_output_relu_neg",
      "type" : "activation",
      "name" : "mobilenetv2_1.00_224_block_7_depthwise_relu__neg__",
      "beta" : 0
    },
    {
      "bottom" : "mobilenetv2_1.00_224_block_7_depthwise_relu_output_relu_neg",
      "alpha" : -6,
      "operation" : 25,
      "weights" : {

      },
      "fused_relu" : 0,
      "debug_info" : "mobilenetv2_1.00_224_block_7_depthwise_relu__clip__",
      "top" : "mobilenetv2_1.00_224_block_7_depthwise_relu_output_relu_clip",
      "type" : "elementwise",
      "name" : "mobilenetv2_1.00_224_block_7_depthwise_relu__clip__",
      "beta" : 0
    },
    {
      "alpha" : -1,
      "bottom" : "mobilenetv2_1.00_224_block_7_depthwise_relu_output_relu_clip",
      "weights" : {

      },
      "mode" : 6,
      "debug_info" : "mobilenetv2_1.00_224_block_7_depthwise_relu_neg2",
      "top" : "mobilenetv2_1.00_224_block_7_depthwise_relu_output",
      "type" : "activation",
      "name" : "mobilenetv2_1.00_224_block_7_depthwise_relu_neg2",
      "beta" : 0
    },
    {
      "pad_r" : 0,
      "fused_relu" : 0,
      "fused_tanh" : 0,
      "debug_info" : "mobilenetv2_1.00_224_block_7_project",
      "pad_fill_mode" : 0,
      "pad_b" : 0,
      "pad_l" : 0,
      "top" : "mobilenetv2_1.00_224_block_7_project_BN_output",
      "blob_weights" : 95,
      "K" : 384,
      "blob_biases" : 93,
      "name" : "mobilenetv2_1.00_224_block_7_project",
      "has_batch_norm" : 0,
      "type" : "convolution",
      "n_groups" : 1,
      "pad_t" : 0,
      "has_biases" : 1,
      "C" : 64,
      "bottom" : "mobilenetv2_1.00_224_block_7_depthwise_relu_output",
      "weights" : {

      },
      "Nx" : 1,
      "pad_mode" : 1,
      "pad_value" : 0,
      "Ny" : 1,
      "n_parallel" : 1
    },
    {
      "bottom" : "mobilenetv2_1.00_224_block_6_project_BN_output,mobilenetv2_1.00_224_block_7_project_BN_output",
      "alpha" : 1,
      "operation" : 0,
      "weights" : {

      },
      "fused_relu" : 0,
      "debug_info" : "mobilenetv2_1.00_224_block_7_add",
      "top" : "mobilenetv2_1.00_224_block_7_add_output",
      "type" : "elementwise",
      "name" : "mobilenetv2_1.00_224_block_7_add",
      "beta" : 0
    },
    {
      "pad_r" : 0,
      "fused_relu" : 1,
      "fused_tanh" : 0,
      "debug_info" : "mobilenetv2_1.00_224_block_8_expand",
      "pad_fill_mode" : 0,
      "pad_b" : 0,
      "pad_l" : 0,
      "top" : "mobilenetv2_1.00_224_block_8_expand_relu_output_relu",
      "blob_weights" : 99,
      "K" : 64,
      "blob_biases" : 97,
      "name" : "mobilenetv2_1.00_224_block_8_expand",
      "has_batch_norm" : 0,
      "type" : "convolution",
      "n_groups" : 1,
      "pad_t" : 0,
      "has_biases" : 1,
      "C" : 384,
      "bottom" : "mobilenetv2_1.00_224_block_7_add_output",
      "weights" : {

      },
      "Nx" : 1,
      "pad_mode" : 1,
      "pad_value" : 0,
      "Ny" : 1,
      "n_parallel" : 1
    },
    {
      "alpha" : -1,
      "bottom" : "mobilenetv2_1.00_224_block_8_expand_relu_output_relu",
      "weights" : {

      },
      "mode" : 6,
      "debug_info" : "mobilenetv2_1.00_224_block_8_expand_relu__neg__",
      "top" : "mobilenetv2_1.00_224_block_8_expand_relu_output_relu_neg",
      "type" : "activation",
      "name" : "mobilenetv2_1.00_224_block_8_expand_relu__neg__",
      "beta" : 0
    },
    {
      "bottom" : "mobilenetv2_1.00_224_block_8_expand_relu_output_relu_neg",
      "alpha" : -6,
      "operation" : 25,
      "weights" : {

      },
      "fused_relu" : 0,
      "debug_info" : "mobilenetv2_1.00_224_block_8_expand_relu__clip__",
      "top" : "mobilenetv2_1.00_224_block_8_expand_relu_output_relu_clip",
      "type" : "elementwise",
      "name" : "mobilenetv2_1.00_224_block_8_expand_relu__clip__",
      "beta" : 0
    },
    {
      "alpha" : -1,
      "bottom" : "mobilenetv2_1.00_224_block_8_expand_relu_output_relu_clip",
      "weights" : {

      },
      "mode" : 6,
      "debug_info" : "mobilenetv2_1.00_224_block_8_expand_relu_neg2",
      "top" : "mobilenetv2_1.00_224_block_8_expand_relu_output",
      "type" : "activation",
      "name" : "mobilenetv2_1.00_224_block_8_expand_relu_neg2",
      "beta" : 0
    },
    {
      "pad_r" : 0,
      "fused_relu" : 1,
      "fused_tanh" : 0,
      "debug_info" : "mobilenetv2_1.00_224_block_8_depthwise",
      "pad_fill_mode" : 0,
      "pad_b" : 0,
      "pad_l" : 0,
      "top" : "mobilenetv2_1.00_224_block_8_depthwise_relu_output_relu",
      "blob_weights" : 103,
      "K" : 384,
      "blob_biases" : 101,
      "name" : "mobilenetv2_1.00_224_block_8_depthwise",
      "has_batch_norm" : 0,
      "type" : "convolution",
      "n_groups" : 384,
      "pad_t" : 0,
      "has_biases" : 1,
      "C" : 384,
      "bottom" : "mobilenetv2_1.00_224_block_8_expand_relu_output",
      "weights" : {

      },
      "Nx" : 3,
      "pad_mode" : 1,
      "pad_value" : 0,
      "Ny" : 3,
      "n_parallel" : 1
    },
    {
      "alpha" : -1,
      "bottom" : "mobilenetv2_1.00_224_block_8_depthwise_relu_output_relu",
      "weights" : {

      },
      "mode" : 6,
      "debug_info" : "mobilenetv2_1.00_224_block_8_depthwise_relu__neg__",
      "top" : "mobilenetv2_1.00_224_block_8_depthwise_relu_output_relu_neg",
      "type" : "activation",
      "name" : "mobilenetv2_1.00_224_block_8_depthwise_relu__neg__",
      "beta" : 0
    },
    {
      "bottom" : "mobilenetv2_1.00_224_block_8_depthwise_relu_output_relu_neg",
      "alpha" : -6,
      "operation" : 25,
      "weights" : {

      },
      "fused_relu" : 0,
      "debug_info" : "mobilenetv2_1.00_224_block_8_depthwise_relu__clip__",
      "top" : "mobilenetv2_1.00_224_block_8_depthwise_relu_output_relu_clip",
      "type" : "elementwise",
      "name" : "mobilenetv2_1.00_224_block_8_depthwise_relu__clip__",
      "beta" : 0
    },
    {
      "alpha" : -1,
      "bottom" : "mobilenetv2_1.00_224_block_8_depthwise_relu_output_relu_clip",
      "weights" : {

      },
      "mode" : 6,
      "debug_info" : "mobilenetv2_1.00_224_block_8_depthwise_relu_neg2",
      "top" : "mobilenetv2_1.00_224_block_8_depthwise_relu_output",
      "type" : "activation",
      "name" : "mobilenetv2_1.00_224_block_8_depthwise_relu_neg2",
      "beta" : 0
    },
    {
      "pad_r" : 0,
      "fused_relu" : 0,
      "fused_tanh" : 0,
      "debug_info" : "mobilenetv2_1.00_224_block_8_project",
      "pad_fill_mode" : 0,
      "pad_b" : 0,
      "pad_l" : 0,
      "top" : "mobilenetv2_1.00_224_block_8_project_BN_output",
      "blob_weights" : 107,
      "K" : 384,
      "blob_biases" : 105,
      "name" : "mobilenetv2_1.00_224_block_8_project",
      "has_batch_norm" : 0,
      "type" : "convolution",
      "n_groups" : 1,
      "pad_t" : 0,
      "has_biases" : 1,
      "C" : 64,
      "bottom" : "mobilenetv2_1.00_224_block_8_depthwise_relu_output",
      "weights" : {

      },
      "Nx" : 1,
      "pad_mode" : 1,
      "pad_value" : 0,
      "Ny" : 1,
      "n_parallel" : 1
    },
    {
      "bottom" : "mobilenetv2_1.00_224_block_7_add_output,mobilenetv2_1.00_224_block_8_project_BN_output",
      "alpha" : 1,
      "operation" : 0,
      "weights" : {

      },
      "fused_relu" : 0,
      "debug_info" : "mobilenetv2_1.00_224_block_8_add",
      "top" : "mobilenetv2_1.00_224_block_8_add_output",
      "type" : "elementwise",
      "name" : "mobilenetv2_1.00_224_block_8_add",
      "beta" : 0
    },
    {
      "pad_r" : 0,
      "fused_relu" : 1,
      "fused_tanh" : 0,
      "debug_info" : "mobilenetv2_1.00_224_block_9_expand",
      "pad_fill_mode" : 0,
      "pad_b" : 0,
      "pad_l" : 0,
      "top" : "mobilenetv2_1.00_224_block_9_expand_relu_output_relu",
      "blob_weights" : 111,
      "K" : 64,
      "blob_biases" : 109,
      "name" : "mobilenetv2_1.00_224_block_9_expand",
      "has_batch_norm" : 0,
      "type" : "convolution",
      "n_groups" : 1,
      "pad_t" : 0,
      "has_biases" : 1,
      "C" : 384,
      "bottom" : "mobilenetv2_1.00_224_block_8_add_output",
      "weights" : {

      },
      "Nx" : 1,
      "pad_mode" : 1,
      "pad_value" : 0,
      "Ny" : 1,
      "n_parallel" : 1
    },
    {
      "alpha" : -1,
      "bottom" : "mobilenetv2_1.00_224_block_9_expand_relu_output_relu",
      "weights" : {

      },
      "mode" : 6,
      "debug_info" : "mobilenetv2_1.00_224_block_9_expand_relu__neg__",
      "top" : "mobilenetv2_1.00_224_block_9_expand_relu_output_relu_neg",
      "type" : "activation",
      "name" : "mobilenetv2_1.00_224_block_9_expand_relu__neg__",
      "beta" : 0
    },
    {
      "bottom" : "mobilenetv2_1.00_224_block_9_expand_relu_output_relu_neg",
      "alpha" : -6,
      "operation" : 25,
      "weights" : {

      },
      "fused_relu" : 0,
      "debug_info" : "mobilenetv2_1.00_224_block_9_expand_relu__clip__",
      "top" : "mobilenetv2_1.00_224_block_9_expand_relu_output_relu_clip",
      "type" : "elementwise",
      "name" : "mobilenetv2_1.00_224_block_9_expand_relu__clip__",
      "beta" : 0
    },
    {
      "alpha" : -1,
      "bottom" : "mobilenetv2_1.00_224_block_9_expand_relu_output_relu_clip",
      "weights" : {

      },
      "mode" : 6,
      "debug_info" : "mobilenetv2_1.00_224_block_9_expand_relu_neg2",
      "top" : "mobilenetv2_1.00_224_block_9_expand_relu_output",
      "type" : "activation",
      "name" : "mobilenetv2_1.00_224_block_9_expand_relu_neg2",
      "beta" : 0
    },
    {
      "pad_r" : 0,
      "fused_relu" : 1,
      "fused_tanh" : 0,
      "debug_info" : "mobilenetv2_1.00_224_block_9_depthwise",
      "pad_fill_mode" : 0,
      "pad_b" : 0,
      "pad_l" : 0,
      "top" : "mobilenetv2_1.00_224_block_9_depthwise_relu_output_relu",
      "blob_weights" : 115,
      "K" : 384,
      "blob_biases" : 113,
      "name" : "mobilenetv2_1.00_224_block_9_depthwise",
      "has_batch_norm" : 0,
      "type" : "convolution",
      "n_groups" : 384,
      "pad_t" : 0,
      "has_biases" : 1,
      "C" : 384,
      "bottom" : "mobilenetv2_1.00_224_block_9_expand_relu_output",
      "weights" : {

      },
      "Nx" : 3,
      "pad_mode" : 1,
      "pad_value" : 0,
      "Ny" : 3,
      "n_parallel" : 1
    },
    {
      "alpha" : -1,
      "bottom" : "mobilenetv2_1.00_224_block_9_depthwise_relu_output_relu",
      "weights" : {

      },
      "mode" : 6,
      "debug_info" : "mobilenetv2_1.00_224_block_9_depthwise_relu__neg__",
      "top" : "mobilenetv2_1.00_224_block_9_depthwise_relu_output_relu_neg",
      "type" : "activation",
      "name" : "mobilenetv2_1.00_224_block_9_depthwise_relu__neg__",
      "beta" : 0
    },
    {
      "bottom" : "mobilenetv2_1.00_224_block_9_depthwise_relu_output_relu_neg",
      "alpha" : -6,
      "operation" : 25,
      "weights" : {

      },
      "fused_relu" : 0,
      "debug_info" : "mobilenetv2_1.00_224_block_9_depthwise_relu__clip__",
      "top" : "mobilenetv2_1.00_224_block_9_depthwise_relu_output_relu_clip",
      "type" : "elementwise",
      "name" : "mobilenetv2_1.00_224_block_9_depthwise_relu__clip__",
      "beta" : 0
    },
    {
      "alpha" : -1,
      "bottom" : "mobilenetv2_1.00_224_block_9_depthwise_relu_output_relu_clip",
      "weights" : {

      },
      "mode" : 6,
      "debug_info" : "mobilenetv2_1.00_224_block_9_depthwise_relu_neg2",
      "top" : "mobilenetv2_1.00_224_block_9_depthwise_relu_output",
      "type" : "activation",
      "name" : "mobilenetv2_1.00_224_block_9_depthwise_relu_neg2",
      "beta" : 0
    },
    {
      "pad_r" : 0,
      "fused_relu" : 0,
      "fused_tanh" : 0,
      "debug_info" : "mobilenetv2_1.00_224_block_9_project",
      "pad_fill_mode" : 0,
      "pad_b" : 0,
      "pad_l" : 0,
      "top" : "mobilenetv2_1.00_224_block_9_project_BN_output",
      "blob_weights" : 119,
      "K" : 384,
      "blob_biases" : 117,
      "name" : "mobilenetv2_1.00_224_block_9_project",
      "has_batch_norm" : 0,
      "type" : "convolution",
      "n_groups" : 1,
      "pad_t" : 0,
      "has_biases" : 1,
      "C" : 64,
      "bottom" : "mobilenetv2_1.00_224_block_9_depthwise_relu_output",
      "weights" : {

      },
      "Nx" : 1,
      "pad_mode" : 1,
      "pad_value" : 0,
      "Ny" : 1,
      "n_parallel" : 1
    },
    {
      "bottom" : "mobilenetv2_1.00_224_block_8_add_output,mobilenetv2_1.00_224_block_9_project_BN_output",
      "alpha" : 1,
      "operation" : 0,
      "weights" : {

      },
      "fused_relu" : 0,
      "debug_info" : "mobilenetv2_1.00_224_block_9_add",
      "top" : "mobilenetv2_1.00_224_block_9_add_output",
      "type" : "elementwise",
      "name" : "mobilenetv2_1.00_224_block_9_add",
      "beta" : 0
    },
    {
      "pad_r" : 0,
      "fused_relu" : 1,
      "fused_tanh" : 0,
      "debug_info" : "mobilenetv2_1.00_224_block_10_expand",
      "pad_fill_mode" : 0,
      "pad_b" : 0,
      "pad_l" : 0,
      "top" : "mobilenetv2_1.00_224_block_10_expand_relu_output_relu",
      "blob_weights" : 123,
      "K" : 64,
      "blob_biases" : 121,
      "name" : "mobilenetv2_1.00_224_block_10_expand",
      "has_batch_norm" : 0,
      "type" : "convolution",
      "n_groups" : 1,
      "pad_t" : 0,
      "has_biases" : 1,
      "C" : 384,
      "bottom" : "mobilenetv2_1.00_224_block_9_add_output",
      "weights" : {

      },
      "Nx" : 1,
      "pad_mode" : 1,
      "pad_value" : 0,
      "Ny" : 1,
      "n_parallel" : 1
    },
    {
      "alpha" : -1,
      "bottom" : "mobilenetv2_1.00_224_block_10_expand_relu_output_relu",
      "weights" : {

      },
      "mode" : 6,
      "debug_info" : "mobilenetv2_1.00_224_block_10_expand_relu__neg__",
      "top" : "mobilenetv2_1.00_224_block_10_expand_relu_output_relu_neg",
      "type" : "activation",
      "name" : "mobilenetv2_1.00_224_block_10_expand_relu__neg__",
      "beta" : 0
    },
    {
      "bottom" : "mobilenetv2_1.00_224_block_10_expand_relu_output_relu_neg",
      "alpha" : -6,
      "operation" : 25,
      "weights" : {

      },
      "fused_relu" : 0,
      "debug_info" : "mobilenetv2_1.00_224_block_10_expand_relu__clip__",
      "top" : "mobilenetv2_1.00_224_block_10_expand_relu_output_relu_clip",
      "type" : "elementwise",
      "name" : "mobilenetv2_1.00_224_block_10_expand_relu__clip__",
      "beta" : 0
    },
    {
      "alpha" : -1,
      "bottom" : "mobilenetv2_1.00_224_block_10_expand_relu_output_relu_clip",
      "weights" : {

      },
      "mode" : 6,
      "debug_info" : "mobilenetv2_1.00_224_block_10_expand_relu_neg2",
      "top" : "mobilenetv2_1.00_224_block_10_expand_relu_output",
      "type" : "activation",
      "name" : "mobilenetv2_1.00_224_block_10_expand_relu_neg2",
      "beta" : 0
    },
    {
      "pad_r" : 0,
      "fused_relu" : 1,
      "fused_tanh" : 0,
      "debug_info" : "mobilenetv2_1.00_224_block_10_depthwise",
      "pad_fill_mode" : 0,
      "pad_b" : 0,
      "pad_l" : 0,
      "top" : "mobilenetv2_1.00_224_block_10_depthwise_relu_output_relu",
      "blob_weights" : 127,
      "K" : 384,
      "blob_biases" : 125,
      "name" : "mobilenetv2_1.00_224_block_10_depthwise",
      "has_batch_norm" : 0,
      "type" : "convolution",
      "n_groups" : 384,
      "pad_t" : 0,
      "has_biases" : 1,
      "C" : 384,
      "bottom" : "mobilenetv2_1.00_224_block_10_expand_relu_output",
      "weights" : {

      },
      "Nx" : 3,
      "pad_mode" : 1,
      "pad_value" : 0,
      "Ny" : 3,
      "n_parallel" : 1
    },
    {
      "alpha" : -1,
      "bottom" : "mobilenetv2_1.00_224_block_10_depthwise_relu_output_relu",
      "weights" : {

      },
      "mode" : 6,
      "debug_info" : "mobilenetv2_1.00_224_block_10_depthwise_relu__neg__",
      "top" : "mobilenetv2_1.00_224_block_10_depthwise_relu_output_relu_neg",
      "type" : "activation",
      "name" : "mobilenetv2_1.00_224_block_10_depthwise_relu__neg__",
      "beta" : 0
    },
    {
      "bottom" : "mobilenetv2_1.00_224_block_10_depthwise_relu_output_relu_neg",
      "alpha" : -6,
      "operation" : 25,
      "weights" : {

      },
      "fused_relu" : 0,
      "debug_info" : "mobilenetv2_1.00_224_block_10_depthwise_relu__clip__",
      "top" : "mobilenetv2_1.00_224_block_10_depthwise_relu_output_relu_clip",
      "type" : "elementwise",
      "name" : "mobilenetv2_1.00_224_block_10_depthwise_relu__clip__",
      "beta" : 0
    },
    {
      "alpha" : -1,
      "bottom" : "mobilenetv2_1.00_224_block_10_depthwise_relu_output_relu_clip",
      "weights" : {

      },
      "mode" : 6,
      "debug_info" : "mobilenetv2_1.00_224_block_10_depthwise_relu_neg2",
      "top" : "mobilenetv2_1.00_224_block_10_depthwise_relu_output",
      "type" : "activation",
      "name" : "mobilenetv2_1.00_224_block_10_depthwise_relu_neg2",
      "beta" : 0
    },
    {
      "pad_r" : 0,
      "fused_relu" : 0,
      "fused_tanh" : 0,
      "debug_info" : "mobilenetv2_1.00_224_block_10_project",
      "pad_fill_mode" : 0,
      "pad_b" : 0,
      "pad_l" : 0,
      "top" : "mobilenetv2_1.00_224_block_10_project_BN_output",
      "blob_weights" : 131,
      "K" : 384,
      "blob_biases" : 129,
      "name" : "mobilenetv2_1.00_224_block_10_project",
      "has_batch_norm" : 0,
      "type" : "convolution",
      "n_groups" : 1,
      "pad_t" : 0,
      "has_biases" : 1,
      "C" : 96,
      "bottom" : "mobilenetv2_1.00_224_block_10_depthwise_relu_output",
      "weights" : {

      },
      "Nx" : 1,
      "pad_mode" : 1,
      "pad_value" : 0,
      "Ny" : 1,
      "n_parallel" : 1
    },
    {
      "pad_r" : 0,
      "fused_relu" : 1,
      "fused_tanh" : 0,
      "debug_info" : "mobilenetv2_1.00_224_block_11_expand",
      "pad_fill_mode" : 0,
      "pad_b" : 0,
      "pad_l" : 0,
      "top" : "mobilenetv2_1.00_224_block_11_expand_relu_output_relu",
      "blob_weights" : 135,
      "K" : 96,
      "blob_biases" : 133,
      "name" : "mobilenetv2_1.00_224_block_11_expand",
      "has_batch_norm" : 0,
      "type" : "convolution",
      "n_groups" : 1,
      "pad_t" : 0,
      "has_biases" : 1,
      "C" : 576,
      "bottom" : "mobilenetv2_1.00_224_block_10_project_BN_output",
      "weights" : {

      },
      "Nx" : 1,
      "pad_mode" : 1,
      "pad_value" : 0,
      "Ny" : 1,
      "n_parallel" : 1
    },
    {
      "alpha" : -1,
      "bottom" : "mobilenetv2_1.00_224_block_11_expand_relu_output_relu",
      "weights" : {

      },
      "mode" : 6,
      "debug_info" : "mobilenetv2_1.00_224_block_11_expand_relu__neg__",
      "top" : "mobilenetv2_1.00_224_block_11_expand_relu_output_relu_neg",
      "type" : "activation",
      "name" : "mobilenetv2_1.00_224_block_11_expand_relu__neg__",
      "beta" : 0
    },
    {
      "bottom" : "mobilenetv2_1.00_224_block_11_expand_relu_output_relu_neg",
      "alpha" : -6,
      "operation" : 25,
      "weights" : {

      },
      "fused_relu" : 0,
      "debug_info" : "mobilenetv2_1.00_224_block_11_expand_relu__clip__",
      "top" : "mobilenetv2_1.00_224_block_11_expand_relu_output_relu_clip",
      "type" : "elementwise",
      "name" : "mobilenetv2_1.00_224_block_11_expand_relu__clip__",
      "beta" : 0
    },
    {
      "alpha" : -1,
      "bottom" : "mobilenetv2_1.00_224_block_11_expand_relu_output_relu_clip",
      "weights" : {

      },
      "mode" : 6,
      "debug_info" : "mobilenetv2_1.00_224_block_11_expand_relu_neg2",
      "top" : "mobilenetv2_1.00_224_block_11_expand_relu_output",
      "type" : "activation",
      "name" : "mobilenetv2_1.00_224_block_11_expand_relu_neg2",
      "beta" : 0
    },
    {
      "pad_r" : 0,
      "fused_relu" : 1,
      "fused_tanh" : 0,
      "debug_info" : "mobilenetv2_1.00_224_block_11_depthwise",
      "pad_fill_mode" : 0,
      "pad_b" : 0,
      "pad_l" : 0,
      "top" : "mobilenetv2_1.00_224_block_11_depthwise_relu_output_relu",
      "blob_weights" : 139,
      "K" : 576,
      "blob_biases" : 137,
      "name" : "mobilenetv2_1.00_224_block_11_depthwise",
      "has_batch_norm" : 0,
      "type" : "convolution",
      "n_groups" : 576,
      "pad_t" : 0,
      "has_biases" : 1,
      "C" : 576,
      "bottom" : "mobilenetv2_1.00_224_block_11_expand_relu_output",
      "weights" : {

      },
      "Nx" : 3,
      "pad_mode" : 1,
      "pad_value" : 0,
      "Ny" : 3,
      "n_parallel" : 1
    },
    {
      "alpha" : -1,
      "bottom" : "mobilenetv2_1.00_224_block_11_depthwise_relu_output_relu",
      "weights" : {

      },
      "mode" : 6,
      "debug_info" : "mobilenetv2_1.00_224_block_11_depthwise_relu__neg__",
      "top" : "mobilenetv2_1.00_224_block_11_depthwise_relu_output_relu_neg",
      "type" : "activation",
      "name" : "mobilenetv2_1.00_224_block_11_depthwise_relu__neg__",
      "beta" : 0
    },
    {
      "bottom" : "mobilenetv2_1.00_224_block_11_depthwise_relu_output_relu_neg",
      "alpha" : -6,
      "operation" : 25,
      "weights" : {

      },
      "fused_relu" : 0,
      "debug_info" : "mobilenetv2_1.00_224_block_11_depthwise_relu__clip__",
      "top" : "mobilenetv2_1.00_224_block_11_depthwise_relu_output_relu_clip",
      "type" : "elementwise",
      "name" : "mobilenetv2_1.00_224_block_11_depthwise_relu__clip__",
      "beta" : 0
    },
    {
      "alpha" : -1,
      "bottom" : "mobilenetv2_1.00_224_block_11_depthwise_relu_output_relu_clip",
      "weights" : {

      },
      "mode" : 6,
      "debug_info" : "mobilenetv2_1.00_224_block_11_depthwise_relu_neg2",
      "top" : "mobilenetv2_1.00_224_block_11_depthwise_relu_output",
      "type" : "activation",
      "name" : "mobilenetv2_1.00_224_block_11_depthwise_relu_neg2",
      "beta" : 0
    },
    {
      "pad_r" : 0,
      "fused_relu" : 0,
      "fused_tanh" : 0,
      "debug_info" : "mobilenetv2_1.00_224_block_11_project",
      "pad_fill_mode" : 0,
      "pad_b" : 0,
      "pad_l" : 0,
      "top" : "mobilenetv2_1.00_224_block_11_project_BN_output",
      "blob_weights" : 143,
      "K" : 576,
      "blob_biases" : 141,
      "name" : "mobilenetv2_1.00_224_block_11_project",
      "has_batch_norm" : 0,
      "type" : "convolution",
      "n_groups" : 1,
      "pad_t" : 0,
      "has_biases" : 1,
      "C" : 96,
      "bottom" : "mobilenetv2_1.00_224_block_11_depthwise_relu_output",
      "weights" : {

      },
      "Nx" : 1,
      "pad_mode" : 1,
      "pad_value" : 0,
      "Ny" : 1,
      "n_parallel" : 1
    },
    {
      "bottom" : "mobilenetv2_1.00_224_block_10_project_BN_output,mobilenetv2_1.00_224_block_11_project_BN_output",
      "alpha" : 1,
      "operation" : 0,
      "weights" : {

      },
      "fused_relu" : 0,
      "debug_info" : "mobilenetv2_1.00_224_block_11_add",
      "top" : "mobilenetv2_1.00_224_block_11_add_output",
      "type" : "elementwise",
      "name" : "mobilenetv2_1.00_224_block_11_add",
      "beta" : 0
    },
    {
      "pad_r" : 0,
      "fused_relu" : 1,
      "fused_tanh" : 0,
      "debug_info" : "mobilenetv2_1.00_224_block_12_expand",
      "pad_fill_mode" : 0,
      "pad_b" : 0,
      "pad_l" : 0,
      "top" : "mobilenetv2_1.00_224_block_12_expand_relu_output_relu",
      "blob_weights" : 147,
      "K" : 96,
      "blob_biases" : 145,
      "name" : "mobilenetv2_1.00_224_block_12_expand",
      "has_batch_norm" : 0,
      "type" : "convolution",
      "n_groups" : 1,
      "pad_t" : 0,
      "has_biases" : 1,
      "C" : 576,
      "bottom" : "mobilenetv2_1.00_224_block_11_add_output",
      "weights" : {

      },
      "Nx" : 1,
      "pad_mode" : 1,
      "pad_value" : 0,
      "Ny" : 1,
      "n_parallel" : 1
    },
    {
      "alpha" : -1,
      "bottom" : "mobilenetv2_1.00_224_block_12_expand_relu_output_relu",
      "weights" : {

      },
      "mode" : 6,
      "debug_info" : "mobilenetv2_1.00_224_block_12_expand_relu__neg__",
      "top" : "mobilenetv2_1.00_224_block_12_expand_relu_output_relu_neg",
      "type" : "activation",
      "name" : "mobilenetv2_1.00_224_block_12_expand_relu__neg__",
      "beta" : 0
    },
    {
      "bottom" : "mobilenetv2_1.00_224_block_12_expand_relu_output_relu_neg",
      "alpha" : -6,
      "operation" : 25,
      "weights" : {

      },
      "fused_relu" : 0,
      "debug_info" : "mobilenetv2_1.00_224_block_12_expand_relu__clip__",
      "top" : "mobilenetv2_1.00_224_block_12_expand_relu_output_relu_clip",
      "type" : "elementwise",
      "name" : "mobilenetv2_1.00_224_block_12_expand_relu__clip__",
      "beta" : 0
    },
    {
      "alpha" : -1,
      "bottom" : "mobilenetv2_1.00_224_block_12_expand_relu_output_relu_clip",
      "weights" : {

      },
      "mode" : 6,
      "debug_info" : "mobilenetv2_1.00_224_block_12_expand_relu_neg2",
      "top" : "mobilenetv2_1.00_224_block_12_expand_relu_output",
      "type" : "activation",
      "name" : "mobilenetv2_1.00_224_block_12_expand_relu_neg2",
      "beta" : 0
    },
    {
      "pad_r" : 0,
      "fused_relu" : 1,
      "fused_tanh" : 0,
      "debug_info" : "mobilenetv2_1.00_224_block_12_depthwise",
      "pad_fill_mode" : 0,
      "pad_b" : 0,
      "pad_l" : 0,
      "top" : "mobilenetv2_1.00_224_block_12_depthwise_relu_output_relu",
      "blob_weights" : 151,
      "K" : 576,
      "blob_biases" : 149,
      "name" : "mobilenetv2_1.00_224_block_12_depthwise",
      "has_batch_norm" : 0,
      "type" : "convolution",
      "n_groups" : 576,
      "pad_t" : 0,
      "has_biases" : 1,
      "C" : 576,
      "bottom" : "mobilenetv2_1.00_224_block_12_expand_relu_output",
      "weights" : {

      },
      "Nx" : 3,
      "pad_mode" : 1,
      "pad_value" : 0,
      "Ny" : 3,
      "n_parallel" : 1
    },
    {
      "alpha" : -1,
      "bottom" : "mobilenetv2_1.00_224_block_12_depthwise_relu_output_relu",
      "weights" : {

      },
      "mode" : 6,
      "debug_info" : "mobilenetv2_1.00_224_block_12_depthwise_relu__neg__",
      "top" : "mobilenetv2_1.00_224_block_12_depthwise_relu_output_relu_neg",
      "type" : "activation",
      "name" : "mobilenetv2_1.00_224_block_12_depthwise_relu__neg__",
      "beta" : 0
    },
    {
      "bottom" : "mobilenetv2_1.00_224_block_12_depthwise_relu_output_relu_neg",
      "alpha" : -6,
      "operation" : 25,
      "weights" : {

      },
      "fused_relu" : 0,
      "debug_info" : "mobilenetv2_1.00_224_block_12_depthwise_relu__clip__",
      "top" : "mobilenetv2_1.00_224_block_12_depthwise_relu_output_relu_clip",
      "type" : "elementwise",
      "name" : "mobilenetv2_1.00_224_block_12_depthwise_relu__clip__",
      "beta" : 0
    },
    {
      "alpha" : -1,
      "bottom" : "mobilenetv2_1.00_224_block_12_depthwise_relu_output_relu_clip",
      "weights" : {

      },
      "mode" : 6,
      "debug_info" : "mobilenetv2_1.00_224_block_12_depthwise_relu_neg2",
      "top" : "mobilenetv2_1.00_224_block_12_depthwise_relu_output",
      "type" : "activation",
      "name" : "mobilenetv2_1.00_224_block_12_depthwise_relu_neg2",
      "beta" : 0
    },
    {
      "pad_r" : 0,
      "fused_relu" : 0,
      "fused_tanh" : 0,
      "debug_info" : "mobilenetv2_1.00_224_block_12_project",
      "pad_fill_mode" : 0,
      "pad_b" : 0,
      "pad_l" : 0,
      "top" : "mobilenetv2_1.00_224_block_12_project_BN_output",
      "blob_weights" : 155,
      "K" : 576,
      "blob_biases" : 153,
      "name" : "mobilenetv2_1.00_224_block_12_project",
      "has_batch_norm" : 0,
      "type" : "convolution",
      "n_groups" : 1,
      "pad_t" : 0,
      "has_biases" : 1,
      "C" : 96,
      "bottom" : "mobilenetv2_1.00_224_block_12_depthwise_relu_output",
      "weights" : {

      },
      "Nx" : 1,
      "pad_mode" : 1,
      "pad_value" : 0,
      "Ny" : 1,
      "n_parallel" : 1
    },
    {
      "bottom" : "mobilenetv2_1.00_224_block_11_add_output,mobilenetv2_1.00_224_block_12_project_BN_output",
      "alpha" : 1,
      "operation" : 0,
      "weights" : {

      },
      "fused_relu" : 0,
      "debug_info" : "mobilenetv2_1.00_224_block_12_add",
      "top" : "mobilenetv2_1.00_224_block_12_add_output",
      "type" : "elementwise",
      "name" : "mobilenetv2_1.00_224_block_12_add",
      "beta" : 0
    },
    {
      "pad_r" : 0,
      "fused_relu" : 1,
      "fused_tanh" : 0,
      "debug_info" : "mobilenetv2_1.00_224_block_13_expand",
      "pad_fill_mode" : 0,
      "pad_b" : 0,
      "pad_l" : 0,
      "top" : "mobilenetv2_1.00_224_block_13_expand_relu_output_relu",
      "blob_weights" : 159,
      "K" : 96,
      "blob_biases" : 157,
      "name" : "mobilenetv2_1.00_224_block_13_expand",
      "has_batch_norm" : 0,
      "type" : "convolution",
      "n_groups" : 1,
      "pad_t" : 0,
      "has_biases" : 1,
      "C" : 576,
      "bottom" : "mobilenetv2_1.00_224_block_12_add_output",
      "weights" : {

      },
      "Nx" : 1,
      "pad_mode" : 1,
      "pad_value" : 0,
      "Ny" : 1,
      "n_parallel" : 1
    },
    {
      "alpha" : -1,
      "bottom" : "mobilenetv2_1.00_224_block_13_expand_relu_output_relu",
      "weights" : {

      },
      "mode" : 6,
      "debug_info" : "mobilenetv2_1.00_224_block_13_expand_relu__neg__",
      "top" : "mobilenetv2_1.00_224_block_13_expand_relu_output_relu_neg",
      "type" : "activation",
      "name" : "mobilenetv2_1.00_224_block_13_expand_relu__neg__",
      "beta" : 0
    },
    {
      "bottom" : "mobilenetv2_1.00_224_block_13_expand_relu_output_relu_neg",
      "alpha" : -6,
      "operation" : 25,
      "weights" : {

      },
      "fused_relu" : 0,
      "debug_info" : "mobilenetv2_1.00_224_block_13_expand_relu__clip__",
      "top" : "mobilenetv2_1.00_224_block_13_expand_relu_output_relu_clip",
      "type" : "elementwise",
      "name" : "mobilenetv2_1.00_224_block_13_expand_relu__clip__",
      "beta" : 0
    },
    {
      "alpha" : -1,
      "bottom" : "mobilenetv2_1.00_224_block_13_expand_relu_output_relu_clip",
      "weights" : {

      },
      "mode" : 6,
      "debug_info" : "mobilenetv2_1.00_224_block_13_expand_relu_neg2",
      "top" : "mobilenetv2_1.00_224_block_13_expand_relu_output",
      "type" : "activation",
      "name" : "mobilenetv2_1.00_224_block_13_expand_relu_neg2",
      "beta" : 0
    },
    {
      "pad_r" : 1,
      "fused_relu" : 1,
      "fused_tanh" : 0,
      "debug_info" : "mobilenetv2_1.00_224_block_13_depthwise",
      "pad_fill_mode" : 0,
      "pad_b" : 1,
      "pad_l" : 0,
      "top" : "mobilenetv2_1.00_224_block_13_depthwise_relu_output_relu",
      "blob_weights" : 163,
      "K" : 576,
      "blob_biases" : 161,
      "stride_x" : 2,
      "name" : "mobilenetv2_1.00_224_block_13_depthwise",
      "has_batch_norm" : 0,
      "type" : "convolution",
      "n_groups" : 576,
      "pad_t" : 0,
      "stride_y" : 2,
      "has_biases" : 1,
      "C" : 576,
      "bottom" : "mobilenetv2_1.00_224_block_13_expand_relu_output",
      "weights" : {

      },
      "Nx" : 3,
      "pad_mode" : 0,
      "pad_value" : 0,
      "Ny" : 3,
      "n_parallel" : 1
    },
    {
      "alpha" : -1,
      "bottom" : "mobilenetv2_1.00_224_block_13_depthwise_relu_output_relu",
      "weights" : {

      },
      "mode" : 6,
      "debug_info" : "mobilenetv2_1.00_224_block_13_depthwise_relu__neg__",
      "top" : "mobilenetv2_1.00_224_block_13_depthwise_relu_output_relu_neg",
      "type" : "activation",
      "name" : "mobilenetv2_1.00_224_block_13_depthwise_relu__neg__",
      "beta" : 0
    },
    {
      "bottom" : "mobilenetv2_1.00_224_block_13_depthwise_relu_output_relu_neg",
      "alpha" : -6,
      "operation" : 25,
      "weights" : {

      },
      "fused_relu" : 0,
      "debug_info" : "mobilenetv2_1.00_224_block_13_depthwise_relu__clip__",
      "top" : "mobilenetv2_1.00_224_block_13_depthwise_relu_output_relu_clip",
      "type" : "elementwise",
      "name" : "mobilenetv2_1.00_224_block_13_depthwise_relu__clip__",
      "beta" : 0
    },
    {
      "alpha" : -1,
      "bottom" : "mobilenetv2_1.00_224_block_13_depthwise_relu_output_relu_clip",
      "weights" : {

      },
      "mode" : 6,
      "debug_info" : "mobilenetv2_1.00_224_block_13_depthwise_relu_neg2",
      "top" : "mobilenetv2_1.00_224_block_13_depthwise_relu_output",
      "type" : "activation",
      "name" : "mobilenetv2_1.00_224_block_13_depthwise_relu_neg2",
      "beta" : 0
    },
    {
      "pad_r" : 0,
      "fused_relu" : 0,
      "fused_tanh" : 0,
      "debug_info" : "mobilenetv2_1.00_224_block_13_project",
      "pad_fill_mode" : 0,
      "pad_b" : 0,
      "pad_l" : 0,
      "top" : "mobilenetv2_1.00_224_block_13_project_BN_output",
      "blob_weights" : 167,
      "K" : 576,
      "blob_biases" : 165,
      "name" : "mobilenetv2_1.00_224_block_13_project",
      "has_batch_norm" : 0,
      "type" : "convolution",
      "n_groups" : 1,
      "pad_t" : 0,
      "has_biases" : 1,
      "C" : 160,
      "bottom" : "mobilenetv2_1.00_224_block_13_depthwise_relu_output",
      "weights" : {

      },
      "Nx" : 1,
      "pad_mode" : 1,
      "pad_value" : 0,
      "Ny" : 1,
      "n_parallel" : 1
    },
    {
      "pad_r" : 0,
      "fused_relu" : 1,
      "fused_tanh" : 0,
      "debug_info" : "mobilenetv2_1.00_224_block_14_expand",
      "pad_fill_mode" : 0,
      "pad_b" : 0,
      "pad_l" : 0,
      "top" : "mobilenetv2_1.00_224_block_14_expand_relu_output_relu",
      "blob_weights" : 171,
      "K" : 160,
      "blob_biases" : 169,
      "name" : "mobilenetv2_1.00_224_block_14_expand",
      "has_batch_norm" : 0,
      "type" : "convolution",
      "n_groups" : 1,
      "pad_t" : 0,
      "has_biases" : 1,
      "C" : 960,
      "bottom" : "mobilenetv2_1.00_224_block_13_project_BN_output",
      "weights" : {

      },
      "Nx" : 1,
      "pad_mode" : 1,
      "pad_value" : 0,
      "Ny" : 1,
      "n_parallel" : 1
    },
    {
      "alpha" : -1,
      "bottom" : "mobilenetv2_1.00_224_block_14_expand_relu_output_relu",
      "weights" : {

      },
      "mode" : 6,
      "debug_info" : "mobilenetv2_1.00_224_block_14_expand_relu__neg__",
      "top" : "mobilenetv2_1.00_224_block_14_expand_relu_output_relu_neg",
      "type" : "activation",
      "name" : "mobilenetv2_1.00_224_block_14_expand_relu__neg__",
      "beta" : 0
    },
    {
      "bottom" : "mobilenetv2_1.00_224_block_14_expand_relu_output_relu_neg",
      "alpha" : -6,
      "operation" : 25,
      "weights" : {

      },
      "fused_relu" : 0,
      "debug_info" : "mobilenetv2_1.00_224_block_14_expand_relu__clip__",
      "top" : "mobilenetv2_1.00_224_block_14_expand_relu_output_relu_clip",
      "type" : "elementwise",
      "name" : "mobilenetv2_1.00_224_block_14_expand_relu__clip__",
      "beta" : 0
    },
    {
      "alpha" : -1,
      "bottom" : "mobilenetv2_1.00_224_block_14_expand_relu_output_relu_clip",
      "weights" : {

      },
      "mode" : 6,
      "debug_info" : "mobilenetv2_1.00_224_block_14_expand_relu_neg2",
      "top" : "mobilenetv2_1.00_224_block_14_expand_relu_output",
      "type" : "activation",
      "name" : "mobilenetv2_1.00_224_block_14_expand_relu_neg2",
      "beta" : 0
    },
    {
      "pad_r" : 0,
      "fused_relu" : 1,
      "fused_tanh" : 0,
      "debug_info" : "mobilenetv2_1.00_224_block_14_depthwise",
      "pad_fill_mode" : 0,
      "pad_b" : 0,
      "pad_l" : 0,
      "top" : "mobilenetv2_1.00_224_block_14_depthwise_relu_output_relu",
      "blob_weights" : 175,
      "K" : 960,
      "blob_biases" : 173,
      "name" : "mobilenetv2_1.00_224_block_14_depthwise",
      "has_batch_norm" : 0,
      "type" : "convolution",
      "n_groups" : 960,
      "pad_t" : 0,
      "has_biases" : 1,
      "C" : 960,
      "bottom" : "mobilenetv2_1.00_224_block_14_expand_relu_output",
      "weights" : {

      },
      "Nx" : 3,
      "pad_mode" : 1,
      "pad_value" : 0,
      "Ny" : 3,
      "n_parallel" : 1
    },
    {
      "alpha" : -1,
      "bottom" : "mobilenetv2_1.00_224_block_14_depthwise_relu_output_relu",
      "weights" : {

      },
      "mode" : 6,
      "debug_info" : "mobilenetv2_1.00_224_block_14_depthwise_relu__neg__",
      "top" : "mobilenetv2_1.00_224_block_14_depthwise_relu_output_relu_neg",
      "type" : "activation",
      "name" : "mobilenetv2_1.00_224_block_14_depthwise_relu__neg__",
      "beta" : 0
    },
    {
      "bottom" : "mobilenetv2_1.00_224_block_14_depthwise_relu_output_relu_neg",
      "alpha" : -6,
      "operation" : 25,
      "weights" : {

      },
      "fused_relu" : 0,
      "debug_info" : "mobilenetv2_1.00_224_block_14_depthwise_relu__clip__",
      "top" : "mobilenetv2_1.00_224_block_14_depthwise_relu_output_relu_clip",
      "type" : "elementwise",
      "name" : "mobilenetv2_1.00_224_block_14_depthwise_relu__clip__",
      "beta" : 0
    },
    {
      "alpha" : -1,
      "bottom" : "mobilenetv2_1.00_224_block_14_depthwise_relu_output_relu_clip",
      "weights" : {

      },
      "mode" : 6,
      "debug_info" : "mobilenetv2_1.00_224_block_14_depthwise_relu_neg2",
      "top" : "mobilenetv2_1.00_224_block_14_depthwise_relu_output",
      "type" : "activation",
      "name" : "mobilenetv2_1.00_224_block_14_depthwise_relu_neg2",
      "beta" : 0
    },
    {
      "pad_r" : 0,
      "fused_relu" : 0,
      "fused_tanh" : 0,
      "debug_info" : "mobilenetv2_1.00_224_block_14_project",
      "pad_fill_mode" : 0,
      "pad_b" : 0,
      "pad_l" : 0,
      "top" : "mobilenetv2_1.00_224_block_14_project_BN_output",
      "blob_weights" : 179,
      "K" : 960,
      "blob_biases" : 177,
      "name" : "mobilenetv2_1.00_224_block_14_project",
      "has_batch_norm" : 0,
      "type" : "convolution",
      "n_groups" : 1,
      "pad_t" : 0,
      "has_biases" : 1,
      "C" : 160,
      "bottom" : "mobilenetv2_1.00_224_block_14_depthwise_relu_output",
      "weights" : {

      },
      "Nx" : 1,
      "pad_mode" : 1,
      "pad_value" : 0,
      "Ny" : 1,
      "n_parallel" : 1
    },
    {
      "bottom" : "mobilenetv2_1.00_224_block_13_project_BN_output,mobilenetv2_1.00_224_block_14_project_BN_output",
      "alpha" : 1,
      "operation" : 0,
      "weights" : {

      },
      "fused_relu" : 0,
      "debug_info" : "mobilenetv2_1.00_224_block_14_add",
      "top" : "mobilenetv2_1.00_224_block_14_add_output",
      "type" : "elementwise",
      "name" : "mobilenetv2_1.00_224_block_14_add",
      "beta" : 0
    },
    {
      "pad_r" : 0,
      "fused_relu" : 1,
      "fused_tanh" : 0,
      "debug_info" : "mobilenetv2_1.00_224_block_15_expand",
      "pad_fill_mode" : 0,
      "pad_b" : 0,
      "pad_l" : 0,
      "top" : "mobilenetv2_1.00_224_block_15_expand_relu_output_relu",
      "blob_weights" : 183,
      "K" : 160,
      "blob_biases" : 181,
      "name" : "mobilenetv2_1.00_224_block_15_expand",
      "has_batch_norm" : 0,
      "type" : "convolution",
      "n_groups" : 1,
      "pad_t" : 0,
      "has_biases" : 1,
      "C" : 960,
      "bottom" : "mobilenetv2_1.00_224_block_14_add_output",
      "weights" : {

      },
      "Nx" : 1,
      "pad_mode" : 1,
      "pad_value" : 0,
      "Ny" : 1,
      "n_parallel" : 1
    },
    {
      "alpha" : -1,
      "bottom" : "mobilenetv2_1.00_224_block_15_expand_relu_output_relu",
      "weights" : {

      },
      "mode" : 6,
      "debug_info" : "mobilenetv2_1.00_224_block_15_expand_relu__neg__",
      "top" : "mobilenetv2_1.00_224_block_15_expand_relu_output_relu_neg",
      "type" : "activation",
      "name" : "mobilenetv2_1.00_224_block_15_expand_relu__neg__",
      "beta" : 0
    },
    {
      "bottom" : "mobilenetv2_1.00_224_block_15_expand_relu_output_relu_neg",
      "alpha" : -6,
      "operation" : 25,
      "weights" : {

      },
      "fused_relu" : 0,
      "debug_info" : "mobilenetv2_1.00_224_block_15_expand_relu__clip__",
      "top" : "mobilenetv2_1.00_224_block_15_expand_relu_output_relu_clip",
      "type" : "elementwise",
      "name" : "mobilenetv2_1.00_224_block_15_expand_relu__clip__",
      "beta" : 0
    },
    {
      "alpha" : -1,
      "bottom" : "mobilenetv2_1.00_224_block_15_expand_relu_output_relu_clip",
      "weights" : {

      },
      "mode" : 6,
      "debug_info" : "mobilenetv2_1.00_224_block_15_expand_relu_neg2",
      "top" : "mobilenetv2_1.00_224_block_15_expand_relu_output",
      "type" : "activation",
      "name" : "mobilenetv2_1.00_224_block_15_expand_relu_neg2",
      "beta" : 0
    },
    {
      "pad_r" : 0,
      "fused_relu" : 1,
      "fused_tanh" : 0,
      "debug_info" : "mobilenetv2_1.00_224_block_15_depthwise",
      "pad_fill_mode" : 0,
      "pad_b" : 0,
      "pad_l" : 0,
      "top" : "mobilenetv2_1.00_224_block_15_depthwise_relu_output_relu",
      "blob_weights" : 187,
      "K" : 960,
      "blob_biases" : 185,
      "name" : "mobilenetv2_1.00_224_block_15_depthwise",
      "has_batch_norm" : 0,
      "type" : "convolution",
      "n_groups" : 960,
      "pad_t" : 0,
      "has_biases" : 1,
      "C" : 960,
      "bottom" : "mobilenetv2_1.00_224_block_15_expand_relu_output",
      "weights" : {

      },
      "Nx" : 3,
      "pad_mode" : 1,
      "pad_value" : 0,
      "Ny" : 3,
      "n_parallel" : 1
    },
    {
      "alpha" : -1,
      "bottom" : "mobilenetv2_1.00_224_block_15_depthwise_relu_output_relu",
      "weights" : {

      },
      "mode" : 6,
      "debug_info" : "mobilenetv2_1.00_224_block_15_depthwise_relu__neg__",
      "top" : "mobilenetv2_1.00_224_block_15_depthwise_relu_output_relu_neg",
      "type" : "activation",
      "name" : "mobilenetv2_1.00_224_block_15_depthwise_relu__neg__",
      "beta" : 0
    },
    {
      "bottom" : "mobilenetv2_1.00_224_block_15_depthwise_relu_output_relu_neg",
      "alpha" : -6,
      "operation" : 25,
      "weights" : {

      },
      "fused_relu" : 0,
      "debug_info" : "mobilenetv2_1.00_224_block_15_depthwise_relu__clip__",
      "top" : "mobilenetv2_1.00_224_block_15_depthwise_relu_output_relu_clip",
      "type" : "elementwise",
      "name" : "mobilenetv2_1.00_224_block_15_depthwise_relu__clip__",
      "beta" : 0
    },
    {
      "alpha" : -1,
      "bottom" : "mobilenetv2_1.00_224_block_15_depthwise_relu_output_relu_clip",
      "weights" : {

      },
      "mode" : 6,
      "debug_info" : "mobilenetv2_1.00_224_block_15_depthwise_relu_neg2",
      "top" : "mobilenetv2_1.00_224_block_15_depthwise_relu_output",
      "type" : "activation",
      "name" : "mobilenetv2_1.00_224_block_15_depthwise_relu_neg2",
      "beta" : 0
    },
    {
      "pad_r" : 0,
      "fused_relu" : 0,
      "fused_tanh" : 0,
      "debug_info" : "mobilenetv2_1.00_224_block_15_project",
      "pad_fill_mode" : 0,
      "pad_b" : 0,
      "pad_l" : 0,
      "top" : "mobilenetv2_1.00_224_block_15_project_BN_output",
      "blob_weights" : 191,
      "K" : 960,
      "blob_biases" : 189,
      "name" : "mobilenetv2_1.00_224_block_15_project",
      "has_batch_norm" : 0,
      "type" : "convolution",
      "n_groups" : 1,
      "pad_t" : 0,
      "has_biases" : 1,
      "C" : 160,
      "bottom" : "mobilenetv2_1.00_224_block_15_depthwise_relu_output",
      "weights" : {

      },
      "Nx" : 1,
      "pad_mode" : 1,
      "pad_value" : 0,
      "Ny" : 1,
      "n_parallel" : 1
    },
    {
      "bottom" : "mobilenetv2_1.00_224_block_14_add_output,mobilenetv2_1.00_224_block_15_project_BN_output",
      "alpha" : 1,
      "operation" : 0,
      "weights" : {

      },
      "fused_relu" : 0,
      "debug_info" : "mobilenetv2_1.00_224_block_15_add",
      "top" : "mobilenetv2_1.00_224_block_15_add_output",
      "type" : "elementwise",
      "name" : "mobilenetv2_1.00_224_block_15_add",
      "beta" : 0
    },
    {
      "pad_r" : 0,
      "fused_relu" : 1,
      "fused_tanh" : 0,
      "debug_info" : "mobilenetv2_1.00_224_block_16_expand",
      "pad_fill_mode" : 0,
      "pad_b" : 0,
      "pad_l" : 0,
      "top" : "mobilenetv2_1.00_224_block_16_expand_relu_output_relu",
      "blob_weights" : 195,
      "K" : 160,
      "blob_biases" : 193,
      "name" : "mobilenetv2_1.00_224_block_16_expand",
      "has_batch_norm" : 0,
      "type" : "convolution",
      "n_groups" : 1,
      "pad_t" : 0,
      "has_biases" : 1,
      "C" : 960,
      "bottom" : "mobilenetv2_1.00_224_block_15_add_output",
      "weights" : {

      },
      "Nx" : 1,
      "pad_mode" : 1,
      "pad_value" : 0,
      "Ny" : 1,
      "n_parallel" : 1
    },
    {
      "alpha" : -1,
      "bottom" : "mobilenetv2_1.00_224_block_16_expand_relu_output_relu",
      "weights" : {

      },
      "mode" : 6,
      "debug_info" : "mobilenetv2_1.00_224_block_16_expand_relu__neg__",
      "top" : "mobilenetv2_1.00_224_block_16_expand_relu_output_relu_neg",
      "type" : "activation",
      "name" : "mobilenetv2_1.00_224_block_16_expand_relu__neg__",
      "beta" : 0
    },
    {
      "bottom" : "mobilenetv2_1.00_224_block_16_expand_relu_output_relu_neg",
      "alpha" : -6,
      "operation" : 25,
      "weights" : {

      },
      "fused_relu" : 0,
      "debug_info" : "mobilenetv2_1.00_224_block_16_expand_relu__clip__",
      "top" : "mobilenetv2_1.00_224_block_16_expand_relu_output_relu_clip",
      "type" : "elementwise",
      "name" : "mobilenetv2_1.00_224_block_16_expand_relu__clip__",
      "beta" : 0
    },
    {
      "alpha" : -1,
      "bottom" : "mobilenetv2_1.00_224_block_16_expand_relu_output_relu_clip",
      "weights" : {

      },
      "mode" : 6,
      "debug_info" : "mobilenetv2_1.00_224_block_16_expand_relu_neg2",
      "top" : "mobilenetv2_1.00_224_block_16_expand_relu_output",
      "type" : "activation",
      "name" : "mobilenetv2_1.00_224_block_16_expand_relu_neg2",
      "beta" : 0
    },
    {
      "pad_r" : 0,
      "fused_relu" : 1,
      "fused_tanh" : 0,
      "debug_info" : "mobilenetv2_1.00_224_block_16_depthwise",
      "pad_fill_mode" : 0,
      "pad_b" : 0,
      "pad_l" : 0,
      "top" : "mobilenetv2_1.00_224_block_16_depthwise_relu_output_relu",
      "blob_weights" : 199,
      "K" : 960,
      "blob_biases" : 197,
      "name" : "mobilenetv2_1.00_224_block_16_depthwise",
      "has_batch_norm" : 0,
      "type" : "convolution",
      "n_groups" : 960,
      "pad_t" : 0,
      "has_biases" : 1,
      "C" : 960,
      "bottom" : "mobilenetv2_1.00_224_block_16_expand_relu_output",
      "weights" : {

      },
      "Nx" : 3,
      "pad_mode" : 1,
      "pad_value" : 0,
      "Ny" : 3,
      "n_parallel" : 1
    },
    {
      "alpha" : -1,
      "bottom" : "mobilenetv2_1.00_224_block_16_depthwise_relu_output_relu",
      "weights" : {

      },
      "mode" : 6,
      "debug_info" : "mobilenetv2_1.00_224_block_16_depthwise_relu__neg__",
      "top" : "mobilenetv2_1.00_224_block_16_depthwise_relu_output_relu_neg",
      "type" : "activation",
      "name" : "mobilenetv2_1.00_224_block_16_depthwise_relu__neg__",
      "beta" : 0
    },
    {
      "bottom" : "mobilenetv2_1.00_224_block_16_depthwise_relu_output_relu_neg",
      "alpha" : -6,
      "operation" : 25,
      "weights" : {

      },
      "fused_relu" : 0,
      "debug_info" : "mobilenetv2_1.00_224_block_16_depthwise_relu__clip__",
      "top" : "mobilenetv2_1.00_224_block_16_depthwise_relu_output_relu_clip",
      "type" : "elementwise",
      "name" : "mobilenetv2_1.00_224_block_16_depthwise_relu__clip__",
      "beta" : 0
    },
    {
      "alpha" : -1,
      "bottom" : "mobilenetv2_1.00_224_block_16_depthwise_relu_output_relu_clip",
      "weights" : {

      },
      "mode" : 6,
      "debug_info" : "mobilenetv2_1.00_224_block_16_depthwise_relu_neg2",
      "top" : "mobilenetv2_1.00_224_block_16_depthwise_relu_output",
      "type" : "activation",
      "name" : "mobilenetv2_1.00_224_block_16_depthwise_relu_neg2",
      "beta" : 0
    },
    {
      "pad_r" : 0,
      "fused_relu" : 0,
      "fused_tanh" : 0,
      "debug_info" : "mobilenetv2_1.00_224_block_16_project",
      "pad_fill_mode" : 0,
      "pad_b" : 0,
      "pad_l" : 0,
      "top" : "mobilenetv2_1.00_224_block_16_project_BN_output",
      "blob_weights" : 203,
      "K" : 960,
      "blob_biases" : 201,
      "name" : "mobilenetv2_1.00_224_block_16_project",
      "has_batch_norm" : 0,
      "type" : "convolution",
      "n_groups" : 1,
      "pad_t" : 0,
      "has_biases" : 1,
      "C" : 320,
      "bottom" : "mobilenetv2_1.00_224_block_16_depthwise_relu_output",
      "weights" : {

      },
      "Nx" : 1,
      "pad_mode" : 1,
      "pad_value" : 0,
      "Ny" : 1,
      "n_parallel" : 1
    },
    {
      "pad_r" : 0,
      "fused_relu" : 1,
      "fused_tanh" : 0,
      "debug_info" : "mobilenetv2_1.00_224_Conv_1",
      "pad_fill_mode" : 0,
      "pad_b" : 0,
      "pad_l" : 0,
      "top" : "mobilenetv2_1.00_224_out_relu_output_relu",
      "blob_weights" : 207,
      "K" : 320,
      "blob_biases" : 205,
      "name" : "mobilenetv2_1.00_224_Conv_1",
      "has_batch_norm" : 0,
      "type" : "convolution",
      "n_groups" : 1,
      "pad_t" : 0,
      "has_biases" : 1,
      "C" : 1280,
      "bottom" : "mobilenetv2_1.00_224_block_16_project_BN_output",
      "weights" : {

      },
      "Nx" : 1,
      "pad_mode" : 0,
      "pad_value" : 0,
      "Ny" : 1,
      "n_parallel" : 1
    },
    {
      "alpha" : -1,
      "bottom" : "mobilenetv2_1.00_224_out_relu_output_relu",
      "weights" : {

      },
      "mode" : 6,
      "debug_info" : "mobilenetv2_1.00_224_out_relu__neg__",
      "top" : "mobilenetv2_1.00_224_out_relu_output_relu_neg",
      "type" : "activation",
      "name" : "mobilenetv2_1.00_224_out_relu__neg__",
      "beta" : 0
    },
    {
      "bottom" : "mobilenetv2_1.00_224_out_relu_output_relu_neg",
      "alpha" : -6,
      "operation" : 25,
      "weights" : {

      },
      "fused_relu" : 0,
      "debug_info" : "mobilenetv2_1.00_224_out_relu__clip__",
      "top" : "mobilenetv2_1.00_224_out_relu_output_relu_clip",
      "type" : "elementwise",
      "name" : "mobilenetv2_1.00_224_out_relu__clip__",
      "beta" : 0
    },
    {
      "alpha" : -1,
      "bottom" : "mobilenetv2_1.00_224_out_relu_output_relu_clip",
      "weights" : {

      },
      "mode" : 6,
      "debug_info" : "mobilenetv2_1.00_224_out_relu_neg2",
      "top" : "mobilenetv2_1.00_224_out_relu_output",
      "type" : "activation",
      "name" : "mobilenetv2_1.00_224_out_relu_neg2",
      "beta" : 0
    },
    {
      "pad_r" : 0,
      "debug_info" : "average_pooling2d_5",
      "pad_fill_mode" : 0,
      "pad_b" : 0,
      "pad_l" : 0,
      "size_x" : 7,
      "top" : "average_pooling2d_5_output",
      "top_shape_style" : 0,
      "stride_x" : 7,
      "avg_or_max" : 0,
      "average_count_exclude_padding" : 1,
      "type" : "pool",
      "name" : "average_pooling2d_5",
      "pad_t" : 0,
      "stride_y" : 7,
      "bottom" : "mobilenetv2_1.00_224_out_relu_output",
      "weights" : {

      },
      "pad_mode" : 2,
      "size_y" : 7,
      "pad_value" : 0
    },
    {
      "bottom" : "average_pooling2d_5_output",
      "weights" : {

      },
      "mode" : 1,
      "nd_axis" : 0,
      "debug_info" : "flatten_7",
      "top" : "flatten_7_output",
      "type" : "flatten",
      "name" : "flatten_7"
    },
    {
      "nB" : 1280,
      "top" : "dense_19__activation___output",
      "has_biases" : 1,
      "weights" : {

      },
      "nC" : 32,
      "blob_weights" : 211,
      "type" : "inner_product",
      "has_relu" : 1,
      "bottom" : "flatten_7_output",
      "blob_biases" : 209,
      "has_tanh" : 0,
      "debug_info" : "dense_19",
      "name" : "dense_19",
      "has_prelu" : 0
    },
    {
      "name" : "batch_normalization_7",
      "bottom" : "dense_19__activation___output",
      "weights" : {

      },
      "debug_info" : "batch_normalization_7",
      "top" : "batch_normalization_7_output",
      "C" : 32,
      "blob_batchnorm_params" : 213,
      "type" : "batchnorm"
    },
    {
      "nB" : 32,
      "top" : "dense_20_output",
      "has_biases" : 1,
      "weights" : {

      },
      "nC" : 3,
      "blob_weights" : 217,
      "type" : "inner_product",
      "has_relu" : 0,
      "bottom" : "batch_normalization_7_output",
      "blob_biases" : 215,
      "has_tanh" : 0,
      "debug_info" : "dense_20",
      "name" : "dense_20",
      "has_prelu" : 0
    },
    {
      "bottom" : "dense_20_output",
      "attributes" : {
        "is_output" : 1
      },
      "weights" : {

      },
      "debug_info" : "dense_20__activation__",
      "top" : "output",
      "C" : 2,
      "type" : "softmax",
      "name" : "dense_20__activation__"
    }
  ]
}